BahdanauGAN/epoch_150/discriminator.pt (torch, 5709 bytes, 5 tensors)

temp_conv.weight f4 [1, 1, 50]
0.38240117 0.41508776 0.5155718 0.5103949 0.38994396 0.6152452 0.41700342 0.62564504
0.5387255 0.5540534 0.5367622 0.6202722 0.47177652 0.43574673 0.4645233 0.44768637
0.62676376 0.5064805 0.4031799 0.59762967 0.3836643 0.6728571 0.5183001 0.55122745
0.36297667 0.5128314 0.4736365 0.4189652 0.5913271 0.42711893 0.3999974 0.5426398
0.531153 0.47638765 0.42626017 0.11294815 0.4391688 0.3815367 0.58965904 0.18607104
0.5557082 0.39950502 0.44311914 0.33693153 0.5284446 0.29309684 0.3045306 -0.04773297
0.41838232 0.46196762
00000000: 16ca c33e 6286 d43e 83fc 033f 3da9 023f
00000010: bca6 c73e b680 1d3f 7981 d53e 462a 203f
00000020: eae9 093f 72d6 0d3f 3f69 093f 29ca 1e3f
00000030: b18c f13e 321a df3e ffd5 ed3e 2637 e53e
00000040: 9773 203f b5a8 013f 996d ce3e 42fe 183f
00000050: a66f c43e 5d40 2c3f 51af 043f 3e1d 0d3f
00000060: 14d8 b93e eb48 033f 7c80 f23e 9b82 d63e
00000070: 3661 173f 55af da3e 76cc cc3e 71ea 0a3f
00000080: a5f9 073f 15e9 f33e c63e da3e 5c51 e73d
00000090: bcda e03e c758 c33e e5f3 163f 6889 3e3e
000000a0: e542 0e3f ec8b cc3e 83e0 e23e 4a82 ac3e
000000b0: 2548 073f ca10 963e 6feb 9b3e a683 43bd
000000c0: 3536 d63e 0587 ec3e

temp_sel.0.w1 f4 [1, 200]
-0.38290873 -0.004246652 -0.0014322161 -0.0057887384 -0.004032514 0.003853221 -1.1539459e-05 -0.009099347
-0.005335698 0.00050386426 -0.36313322 -0.0075940248 0.0011883819 -0.0064556836 0.004816103 -0.0067382655
-0.008927158 0.00029726623 -0.005035366 -0.0064474023 -0.27518237 0.004597838 -0.004180894 0.0010142064
0.0073811016 -0.0011642646 0.0065333447 0.0039535975 -0.0036339245 0.006895555 0.29793724 0.0029546164
0.0061199726 -0.004811276 -0.0006488144 0.00047685383 0.008195872 -0.000581913 -0.00033495782 0.0071420833
0.38863534 -0.0069133043 0.0051548765 0.0041610873 -0.00935709 -0.009169623 0.00052823423 -0.009341403
-0.0031662057 -0.0046262513 0.5726957 0.0053383517 0.008995245 -0.00666401 -0.0069892285 0.004161001
-0.008003143 -0.0013093578 -0.004940494 -0.0039726924 0.6281313 -0.0019291186 0.0023430372 -0.003952987
-0.0010915542 0.0014778936 0.004190707 -0.0020106412 0.00222098 -0.0023291276 -0.3550812 0.0034420942
0.0026853334 0.0057748663 -0.008471008 -0.00036923407 -0.00524176 0.0035252678 -0.008029452 0.006703708
-0.37923384 -0.0011366784 0.0030566608 0.006298873 -0.0015074431 -0.003870927 -0.0053899786 0.0005147779
-0.008600376 -0.008970232 0.50367 0.0017312813 -0.004527582 -0.00035221098 0.0066511175 0.0063099014
0.007832198 -0.0056074345 0.0013631963 -0.008895122 0.40103504 -0.005521322 0.0064287577 0.002544831
0.001967647 -0.004591051 0.00879102 -0.003595408 -0.007382059 0.007520587 -0.31005502 0.008750293
-0.0020513237 0.0005168652 -0.006112716 -0.0019628478 0.0052901516 0.0046385666 -0.006445385 0.006551434
0.3533633 0.00946882 0.0013207841 0.0037968003 -0.008693152 -0.009016361 0.00045875905 -0.0014107906
0.0032575368 -0.00346447 -0.38619015 0.009082068 -0.005469943 0.006948851 0.004399799 0.008129909
0.0032164417 -0.003076465 7.268548e-05 0.007486968 -0.35879433 -0.0068201027 0.0074445736 -0.008734705
0.006086556 -0.009196055 -0.0035800778 0.0045305872 -0.0008894467 0.0077510094 -0.32683045 0.0012675071
-0.0056197927 0.004375807 -0.0015564704 0.004531437 0.004169973 -0.0025764704 0.007756656 -0.000621382
0.2963716 -0.007965366 -0.006116073 -0.005535035 0.002066207 0.00060400844 -0.0032307552 0.0075998744
0.0064250967 -0.007867274 0.27803272 0.00535948 0.003298452 -0.009173645 -0.002155639 -0.0016174829
0.008379652 0.0030677998 -0.00369166 0.007403257 -0.36828706 -0.003801875 0.009206088 -0.0050188075
0.0044047963 0.008123109 0.009010143 -0.0015463805 -0.009597145 -0.008607022 0.36386994 0.0067332373
0.0009437024 0.0043206215 -0.0003955829 -0.0054598483 -0.003363918 -0.0028437148 -0.009209411 -0.0062507186
00000000: 9d0c c4be 8027 8bbb 33b9 bbba 75af bdbb
00000010: 2e23 84bb 5286 7c3b 9999 41b7 6d15 15bc
00000020: 14d7 aebb c215 043a 99ec b9be 4cd7 f8bb
00000030: 7bc3 9b3a 338a d3bb 66d0 9d3b abcc dcbb
00000040: 3743 12bc 66da 9b39 b6ff a4bb bb44 d3bb
00000050: b4e4 8cbe 76a9 963b e1ff 88bb 1fef 843a
00000060: 2bdd f13b 3d9a 98ba ab15 d63b 2e8d 813b
00000070: 2327 6ebb 1cf4 e13b 3b8b 983e 3da2 413b
00000080: 0d8a c83b e9a7 9dbb 3315 2aba 3d02 fa39
00000090: fb47 063c 858b 18ba 479d afb9 2308 ea3b
000000a0: 36fb c63e 0089 e2bb 3dea a83b bb59 883b
000000b0: 7b4e 19bc 303c 16bc 3379 0a3a af0c 19bc
000000c0: 1e80 4fbb cf97 97bb 2f9c 123f 57ed ae3b
000000d0: cb60 133c c55d dabb e605 e5bb 0259 883b
000000e0: 9d1f 03bc c29e abba dee3 a1bb 5c2d 82bb
000000f0: 36cd 203f 7bda fcba a48d 193b 0f88 81bb
00000100: 7b12 8fba e1b5 c13a 3352 893b f6c4 03bb
00000110: dc8d 113b 47a4 18bb 34cd b5be c294 613b
00000120: 6bfc 2f3b 173b bd3b fcc9 0abc c295 c1b9
00000130: 12c3 abbb 2e08 673b f68d 03bc c7aa db3b
00000140: f02a c2be 99fc 94ba 4252 483b c766 ce3b
00000150: 6695 c5ba 61af 7dbb 6b9e b0bb 29f2 063a
00000160: 97e8 0cbc e1f7 12bc 84f0 003f 29ec e23a
00000170: 1c5c 94bb f5a8 b8b9 9ef1 d93b 4ac3 ce3b
00000180: 9f52 003c 92be b7bb 47ad b23a d9bc 11bc
00000190: 7754 cd3e 35ec b4bb 54a8 d23b 2ec7 263b
000001a0: a4f3 003b 8770 96bb 3608 103c f0a0 6bbb
000001b0: 33e5 f1bb 426f f63b 88bf 9ebe 645d 0f3c
000001c0: 806f 06bb 3d7e 073a 2e4d c8bb 1fa3 00bb
000001d0: 0259 ad3b 1eff 973b cf33 d3bb 69ad d63b
000001e0: 09ec b43e 1c23 1b3c 291e ad3a bdd3 783b
000001f0: b96d 0ebc 5cb9 13bc 9985 f039 47ea b8ba
00000200: 667c 553b 290c 63bb b7ba c5be f4cc 143c
00000210: 353d b3bb 30b3 e33b 302c 903b 4f33 053c
00000220: f0ca 523b 859e 49bb b86e 9838 3d55 f53b
00000230: e4b3 b7be 2b7b dfbb 9cf1 f33b 021c 0fbc
00000240: bb71 c73b 0dab 16bc bd9f 6abb 5275 943b
00000250: c229 69ba 2efc fd3b 5256 a7be 7b22 a63a
00000260: 3d26 b8bb ee62 8f3b 7b02 ccba 737c 943b
00000270: 45a4 883b 00da 28bb 8c2b fe3b 3de4 22ba
00000280: 05be 973e 2b81 02bc 5769 c8bb 3d5f b5bb
00000290: 3369 073b 5256 1e3a 14bb 53bb 5e08 f93b
000002a0: 9e89 d23b bde5 00bc 4e5a 8e3e 949e af3b
000002b0: d72a 583b 0e4d 16bc 9f45 0dbb b801 d4ba
000002c0: cf4a 093c 240d 493b c7ef 71bb 0597 f23b
000002d0: 1f90 bcbe e128 79bb 22d5 163c cf74 a4bb
000002e0: 1c56 903b ca16 053c 479f 133c ebaf caba
000002f0: 583d 1dbc 7804 0dbc 294d ba3e 7da2 dc3b
00000300: cc62 773a 0094 8d3b 3d66 cfb9 87e8 b2bb
00000310: 2e75 5cbb 9e5d 3abb 12e3 16bc d4d2 ccbb

temp_sel.0.w2 f4 [1, 200]
0.31456664 0.0027954674 -0.003653754 0.004118526 0.008592235 0.00982528 0.009244812 0.0028653406
0.0058901524 0.0018651568 -0.30152178 0.0076135336 0.0048693395 0.008651179 0.0073299683 -0.0056350934
-0.0040224525 0.007734178 0.0065742764 0.0046336614 -0.41597837 -0.002557243 -0.00065375806 0.0052811084
-0.003581569 -0.0008486366 -0.009579147 0.009365888 -0.0010744131 0.0013310539 -0.58939284 -0.0043580974
0.0041639446 0.005961817 0.0062540458 -0.008656336 -0.0032209372 0.0012741792 -0.00874369 -0.0033086229
-0.6357519 0.0021211372 0.0065352283 0.0055937814 0.008021448 0.0074190116 -0.006699805 -0.0059192157
0.0052972864 0.0050505935 -0.61326367 0.00057106256 -0.0004060769 -0.005818037 -0.0022743738 -0.009495408
-0.009776743 -0.0011888122 -0.0013548409 0.0011743271 -0.6795385 0.0038650036 0.009576155 0.004766233
-0.006058651 -0.008976762 0.0009255838 0.0012985814 0.0010831499 0.0003979647 -0.25997648 0.009490669
-0.008512014 -0.006945128 -0.0020853984 0.006019355 0.0003699529 -0.009270875 -0.0054348013 -0.003923517
-0.43883747 0.008095494 -0.0043045757 0.009162 -0.0037395954 -0.0015539848 -0.009812819 -0.008496017
-0.004524684 0.0021937024 -0.5342063 -0.006037285 0.008246217 0.0033473778 -0.00018759727 -0.0057718228
-0.0035305677 0.006745007 0.0070707914 -0.0015489482 -0.5041609 -0.0062829624 0.0054485914 -0.005236431
-0.0014328038 0.0036226152 0.0068424377 0.0056741987 -0.002807083 -0.007722504 -0.46032843 -0.006684574
0.009841477 -0.0022941278 0.0035863374 -0.0013931191 -0.00062110304 0.0073609217 0.0032502234 0.0015603495
-0.44655845 -0.0065690493 -0.0018188751 0.0010471678 -0.00034907102 -0.009719378 -0.0068474687 -0.00913171
0.0012008428 0.0029740715 -0.47455478 0.006268792 0.0036802075 0.007179453 -0.0063133393 -0.0051085735
0.0071359156 -0.003913233 -0.0015547681 0.0031161974 -0.49631688 0.005016372 0.009039766 -0.00899444
-0.007982432 0.0012866545 -0.0047521507 0.0011459875 0.007928795 -0.00035131097 -0.35781106 -0.007184633
-0.0020067787 0.008715897 0.0014106476 -0.006339657 0.0084272 0.009924358 -0.009002958 0.008097785
-0.33906654 0.003502923 0.005869212 -0.00094217417 0.00369776 -0.0075979508 0.0034090255 -0.00841891
-0.0024332749 0.0019550358 -0.32868755 0.0088736415 0.0059745205 -0.0048742485 -0.009411577 0.008848842
0.0013227058 0.009041023 0.008683628 -0.007713791 -0.38932276 0.001824398 0.006369748 -0.008693254
-0.0032003308 0.0018911838 0.0055679143 0.00025060415 -0.0059925234 -0.004897754 -0.3641419 -0.0049738204
-0.0011099684 0.009811384 -0.00014295935 0.0086735375 -0.008053052 -0.0008660197 -0.0099336095 0.0043925988
00000000: e10e a13e 2934 373b d273 6fbb b3f4 863b
00000010: 72c6 0c3c 36fa 203c 8d77 173c 70c8 3b3b
00000020: 2e02 c13b 4778 f43a 1061 9abe f37a f93b
00000030: fb8e 9f3b adbd 0d3c 3b30 f03b 97a6 b8bb
00000040: c7ce 83bb fd6e fd3b 076d d73b f8d5 973b
00000050: 1efb d4be 6b97 27bb f660 2bba 260d ad3b
00000060: c2b8 6abb 0a77 5eba dbf1 1cbc 6273 193c
00000070: 52d3 8cba c276 ae3a 73e2 16bf 5fce 8ebb
00000080: b371 883b 595b c33b bdee cc3b 4ed3 0dbc
00000090: 5c16 53bb 5c02 a73a b241 0fbc 7bd5 58bb
000000a0: a3c0 22bf c702 0b3b 7825 d63b 0a4c b73b
000000b0: 646c 033c 2e1b f33b 0a8a dbbb fbf5 c1bb
000000c0: dc94 ad3b 737f a53b d9fe 1cbf 5cb3 153a
000000d0: b8e6 d4b9 3ba5 bebb a90d 15bb a192 1bbc
000000e0: a22e 20bc ebd1 9bba eb94 b1ba e1eb 993a
000000f0: 3cf6 2dbf 004c 7d3b 4ee5 1c3c 0f2e 9c3b
00000100: a687 c6bb 4513 13bc e1a2 723a 2935 aa3a
00000110: 7bf8 8d3a eba5 d039 a31b 85be c07e 1b3c
00000120: f975 0bbc f593 e3bb 2eab 08bb 023e c53b
00000130: 3df6 c139 dee4 17bc 6b16 b2bb d990 80bb
00000140: 4eaf e0be f6a2 043c 660d 8dbb 371c 163c
00000150: 0014 75bb 14af cbba f2c5 20bc e132 0bbc
00000160: cd43 94bb 38c4 0f3b bec1 08bf 6bd4 c5bb
00000170: 241b 073c ae5f 5b3b c2b5 44b9 8f21 bdbb
00000180: 1961 67bb 3805 dd3b 19b2 e73b 1406 cbba
00000190: b010 01bf 4fe1 cdbb 198a b23b 5e96 abbb
000001a0: ebcc bbba 6669 6d3b 8736 e03b a1ee b93b
000001b0: 0af7 37bb 0f0d fdbb 2bb0 ebbe 450a dbbb
000001c0: 253e 213c 1459 16bb c208 6b3b 5299 b6ba
000001d0: 85d1 22ba e333 f13b b301 553b a484 cc3a
000001e0: 4fa3 e4be 2e41 d7bb 5267 eeba 1f41 893a
000001f0: 8503 b7b9 073e 1fbc bb60 e0bb 2b9d 15bc
00000200: 9965 9d3a a4e8 423b d8f8 f2be 706a cd3b
00000210: a32f 713b 9e41 eb3b 21e0 cebb d265 a7bb
00000220: 66d4 e93b 943a 80bb 5cc9 cbba 1e39 4c3b
00000230: 3f1d febe 6160 a43b 871b 143c 6a5d 13bc
00000240: bfc8 02bc f6a4 a83a eeb7 9bbb f634 963a
00000250: c7e7 013c 2930 b8b9 0333 b7be 126d ebbb
00000260: 2984 03bb 1fcd 0e3c 7be5 b83a e6bc cfbb
00000270: 3d12 0a3c c699 223c 2581 13bc 92ac 043c
00000280: 219a adbe 4c91 653b 8552 c03b 3dfc 76ba
00000290: 1e56 723b 3bf8 f8bb f569 5f3b 78ef 09bc
000002a0: 9477 1fbb 0f20 003b bc49 a8be c062 113c
000002b0: e9c5 c33b 29b8 9fbb 0433 1abc bcfa 103c
000002c0: a45e ad3a cd20 143c c745 0e3c f8c3 fcbb
000002d0: 5055 c7be a320 ef3a 52b9 d03b 266e 0ebc
000002e0: a4bc 51bb 99e1 f73a 0d73 b63b 8563 8339
000002f0: ee5c c4bb 577d a0bb cf70 babe 6efb a2bb
00000300: 5c7c 91ba edbf 203c 5ce7 15b9 741b 0e3c
00000310: f3f0 03bc 9905 63ba 94c0 22bc caef 8f3b

temp_sel.0.b f4 [1, 200]
-0.5017441 0.00377102 -0.006798078 0.0055461833 -0.008997506 0.009840582 0.000967288 0.0026697516
-0.004163046 0.009103364 -0.39717367 0.0071539665 -0.00031387925 -0.0020691038 0.007304239 0.008865559
0.007734518 -0.0032171176 -0.0016185426 0.008970125 -0.40382454 -0.009632504 -0.00023498057 -0.0028442573
0.0032033038 -0.0036861908 0.0006837976 0.0050707124 0.0005117392 0.0026092182 -0.42868882 -0.0054150713
-0.0044488 0.008977278 0.004863075 0.002725576 -0.009655303 -0.000934906 0.004705261 -0.005376551
-0.48961255 0.007975031 -0.008809685 0.0037182032 -0.0070391092 -0.009514193 0.00872188 0.009473736
-0.005908284 0.0047582886 -0.4719235 0.0009817481 0.00783972 0.005512515 0.0004093051 -0.0026071859
-0.00041054486 -0.0021168839 0.0011404812 0.0015353012 -0.5233661 -0.0071464884 -0.0018277549 0.0021678389
0.003620895 0.0046822308 -0.0053897547 0.0041098725 0.008037786 -0.0045847986 0.48167872 0.005023925
0.0074813124 -0.008553382 -0.0006015098 0.0020856655 0.004706508 0.004059868 -0.006651549 0.0063892794
-0.35700354 -0.004950613 0.0030790675 -0.002789129 0.005667983 0.0018356597 0.002387421 0.005008197
-0.008398316 -0.004152243 0.36979488 0.0008757698 0.0048670303 0.0058900556 0.0017304969 -0.00025684357
0.002952559 -0.0045687044 0.00026928543 -0.0019303858 0.3849416 -0.0064227674 -0.00857391 0.0023082434
0.0060332357 0.008670705 -0.009201974 0.006801419 0.0067855236 -0.0008775401 -0.3646838 0.006274569
0.0044339 -0.005316503 0.007362064 0.0019692539 -0.0047625694 0.008150852 0.0053167758 0.0022502362
0.3977065 0.0071114646 -0.0024440074 0.008231305 0.0004913056 -0.0042711343 -0.0056901444 -0.001589973
0.005985286 -0.007909187 -0.37857622 0.0074744876 -0.0040296866 -0.004152771 -0.0015028106 -0.0018762755
0.0032659648 0.0033768879 0.007990527 0.008128937 -0.37282765 -0.006470121 -0.0084922165 -0.005362977
0.009208419 -0.006107788 -0.009020597 -0.00042257545 -0.009147227 0.0002595949 -0.3899105 0.0004568219
0.0023646664 -0.003557067 -0.0011897718 0.007787875 -0.0053852797 0.008593921 0.0051207873 0.0062625906
0.390081 0.0023477853 -0.008081287 0.004990182 0.007136164 0.0022606861 0.0029524302 0.005632169
-0.007110673 0.009223682 0.42623204 0.008044835 0.008466842 -0.0006317377 -0.0037875772 -0.0060765124
0.0031163776 0.008742775 0.0010896826 -0.0030719424 -0.42257553 0.0075546596 -0.0032180427 0.0001657021
0.0047202385 0.0015434109 0.0047240555 9.80258e-05 0.003212074 0.000121015306 0.40113416 0.00522243
0.007999761 -0.00046757222 0.00453125 -0.0041044056 -0.0068113124 -0.004437461 0.006153953 -0.003772075
00000000: 4d72 00bf 3823 773b 69c2 debb c2bc b53b
00000010: 476a 13bc 643a 213c 9991 7d3a 00f7 2e3b
00000020: 296a 88bb 4726 153c 595a cbbe d26b ea3b
00000030: 2990 a4b9 cd99 07bb 6658 ef3b d940 113c
00000040: d771 fd3b 47d6 52bb 4725 d4ba 6ef7 123c
00000050: 17c2 cebe a6d1 1dbc 1e65 76b9 b866 3abb
00000060: 85ee 513b 0594 71bb e140 333a 3828 a63b
00000070: 3d26 063a 6bff 2a3b 1a7d dbbe e970 b1bb
00000080: 3dc7 91bb 6f15 133c 6e5a 9f3b 949f 323b
00000090: 4731 1ebc 7b14 75ba 972e 9a3b c72d b0bb
000000a0: 7fae fabe b4a9 023c 7f56 10bc 19ad 733b
000000b0: 54a8 e6bb 6be1 1bbc 37e6 0e3c bb37 1b3c
000000c0: 479a c1bb 6beb 9b3b f59f f1be 00ae 803a
000000d0: 2b72 003c 54a2 b43b 0098 d639 52dd 2abb
000000e0: 663e d7b9 6bbb 0abb 337c 953a 293c c93a
000000f0: 52fb 05bf 172d eabb 4791 efba 4d12 0e3b
00000100: 8a4c 6d3b 666d 993b 8a9c b0bb 1cac 863b
00000110: ebb0 033c 143c 96bb 989e f63e bd9f a43b
00000120: cc25 f53b 7c23 0cbc a4ae 1dba a9af 083b
00000130: 0d39 9a3b a408 853b 3df5 d9bb 295d d13b
00000140: 2bc9 b6be c038 a2bb 2eca 493b d2c9 36bb
00000150: 7dba b93b 859a f03a 4776 1c3b cd1b a43b
00000160: 1799 09bc 8a0f 88bb c155 bd3e eb93 653a
00000170: 9c7b 9f3b 5e01 c13b d7d1 e23a f6a8 86b9
00000180: b87f 413b 12b5 95bb e12e 8d39 0005 fdba
00000190: 1117 c53e 1476 d2bb 9679 0cbc e645 173b
000001a0: 73b2 c53b 930f 0e3c e0c3 16bc 70de de3b
000001b0: 1959 de3b b80a 66ba d6b7 babe e69a cd3b
000001c0: 404a 913b 0f36 aebb 783d f13b 990e 013b
000001d0: 540f 9cbb 278b 053c 5938 ae3b b378 133b
000001e0: 30a0 cb3e 4a07 e93b a42b 20bb 98dc 063c
000001f0: f6ca 003a dff4 8bbb 6474 babb a466 d0ba
00000200: 3820 c43b 8995 01bc bed4 c1be 8cec f43b
00000210: 760b 84bb f813 88bb f5f9 c4ba 5ced f5ba
00000220: cc09 563b c74e 5d3b b3ea 023c 3c2f 053c
00000230: 44e3 bebe 4f03 d4bb f022 0bbc e9bb afbb
00000240: e9de 163c d723 c8bb 20cb 13bc 1e8d ddb9
00000250: 40de 15bc 3d1a 8839 59a2 c7be 9981 ef39
00000260: 85f8 1a3b ae1d 69bb 1ef2 9bba 6e31 ff3b
00000270: 0077 b0bb 84cd 0c3c 47cc a73b 6b36 cd3b
00000280: b2b8 c73e 4ddd 193b 6067 04bc ae84 a33b
00000290: 7bd6 e93b 0528 143b 8f7d 413b 0f8e b83b
000002a0: a600 e9bb ed1e 173c 163b da3e 7cce 033c
000002b0: 82b8 0a3c 339b 25ba 0039 78bb 7b1d c7bb
000002c0: 243c 4c3b db3d 0f3c aed3 8e3a a452 49bb
000002d0: d25b d8be 148d f73b cce5 52bb 52c0 2d39
000002e0: 3bac 9a3b 474c ca3a 40cc 9a3b 3393 cd38
000002f0: a981 523b 99c9 fd38 7561 cd3e eb20 ab3b
00000300: 6e11 033c 7b24 f5b9 e17a 943b 407e 86bb
00000310: 6e31 dfbb 1f68 91bb 19a7 c93b eb34 77bb

fc_layer.weight f4 [1, 20]
0.6592238 0.80335337 0.61175406 0.6637219 0.5554855 0.7806993 0.6432363 -0.42852506
0.71861136 -0.7147821 -0.6174531 0.60808086 -0.44097996 0.6236938 0.534285 0.5579922
-0.46687114 -0.41288227 0.5049175 -0.51825404
00000000: e4c2 283f 91a8 4d3f ea9b 1c3f aee9 293f
00000010: 4c34 0e3f e9db 473f 22ab 243f a367 dbbe
00000020: eaf6 373f f6fb 36bf 6811 1ebf 30ab 1b3f
00000030: 20c8 e1be 66aa 1f3f e7c6 083f 94d8 0e3f
00000040: bc09 efbe 4e65 d3be 4642 013f 4cac 04bf
