BahdanauGAN/epoch_150/discriminator.pt (torch, 4487 bytes, 5 tensors)

unmixing_layer.weight f4 [8, 1, 1]
000000 62 9d 99 bf f4 3f 72 3f 92 b3 a8 bf 23 98 8f bf
       -1.2001154 0.94628835 -1.31798 -1.1218303
000010 ed ea 0a bf a7 a8 a2 bf c7 85 40 3f 0b 91 1b 3f
       -0.5426472 -1.2707719 0.7520413 0.60768193

unmixing_layer.bias f4 [8]
000000 1b 22 15 3f c1 e3 35 bc ee 7a d4 3c d3 0d 29 3e
       0.58255166 -0.011101664 0.025937524 0.1650918
000010 e3 b5 f5 be 49 7c 3e 3e ed b0 7f 3f 77 ce 45 3f
       -0.4799033 0.18602099 0.9987934 0.77268165

temp_conv.weight f4 [8, 1, 50]
000000 2b bf 50 be b8 8c 65 bd 37 06 40 be b4 90 95 bd
       -0.20385425 -0.056042403 -0.18752371 -0.073029906
000010 5b 1e 8b 3e 63 2f c6 bc e6 f3 48 be 8a 90 5d be
       0.27171597 -0.024192518 -0.1962429 -0.21637169
000020 f5 0c 08 bd d5 74 a3 3d 62 e4 91 3e f6 d5 d4 bc
       -0.03321548 0.07981268 0.28494555 -0.02598093
000030 ec fe a9 3d 22 0e 4f 3e c8 fe 1e be 19 d8 76 3e
       0.083005756 0.20220235 -0.15526879 0.24105872
000040 91 17 dd bd 82 46 cf 3d bd 93 83 3e 7c e0 58 3e
       -0.107955106 0.1012087 0.25698653 0.21179384
000050 03 1a 99 3d ff 00 53 3e 9d 69 5f 3c 37 4d af 3c
       0.074756645 0.20605849 0.01363602 0.021399124
000060 b4 c0 3e be 28 54 05 bd cb 5e 33 be 3a c2 04 3d
       -0.18628198 -0.03255096 -0.1751663 0.03241179
000070 79 1c 4a be 16 ab da 3d 3d 98 8a be 7c 13 8f bd
       -0.19737424 0.10677163 -0.27069274 -0.06986138
000080 bc a1 87 3d 22 dd bf 3c af 6c 8c 3e 6a 83 f6 3d
       0.06622645 0.023420874 0.2742667 0.12036784
000090 46 9d 3d 3e 9e 6c 8f be 4d ec 89 3d 8b 85 e4 bd
       0.18517026 -0.28012556 0.06734524 -0.11158284
0000a0 9d 31 0e 3d 1f 10 f0 3d 65 38 15 be e1 bc 6b 3d
       0.034715284 0.11721825 -0.14572294 0.057553176
0000b0 94 1b d3 bd 44 6e 82 3d 8a f1 99 bc 98 6b 31 3c
       -0.103079945 0.06368688 -0.018791933 0.010828875
0000c0 67 c6 40 3d 15 35 4b 3d 91 f7 da 3d 13 f1 b1 be
       0.04706421 0.04961117 0.10691751 -0.34754238
0000d0 b2 fb 1f 3d 07 b0 81 3d 42 4f 3b bd 17 d2 26 3e
       0.039058395 0.06332403 -0.045729883 0.1629108
0000e0 18 5f c1 3d 89 db 5f be b2 2e b7 3b 33 c8 5f be
       0.09441966 -0.2186109 0.0055902833 -0.21853714
0000f0 49 dd 57 bc d0 eb 43 be 53 42 91 be 17 b1 c6 be
       -0.013175317 -0.19132924 -0.28370914 -0.38806984
000100 82 45 62 3e 74 4d b0 3d 54 44 d3 bd 8b 4d 1a 3e
       0.22096828 0.08608523 -0.10315767 0.15068643
000110 66 cf 46 be 3f 07 ae bd 88 fc fb be 5a 27 df 3d
       -0.19415054 -0.08497476 -0.49216104 0.108961776
000120 05 0f 99 bc 5f b7 8c bd c8 ee 76 3b 19 8f 4d be
       -0.01868392 -0.06870913 0.0037678946 -0.20074119
000130 d3 88 49 be 0e be 07 3d 69 63 dc be 45 e3 22 be
       -0.196811 0.033140235 -0.43044594 -0.15907009
000140 df f9 62 bb 2a 6e b3 bb af 97 27 be 81 3a be 3e
       -0.0034633798 -0.005475779 -0.16366456 0.3715401
000150 7f 67 78 bd 3b 8d ad 3e 8c ed 45 3e 33 f1 1d be
       -0.060645577 0.33896813 0.19328898 -0.15424041
000160 15 79 41 3e d2 6a 57 3e 3d 80 d0 3d 7c 68 f3 be
       0.18893845 0.21036842 0.101807095 -0.47540653
000170 fe 57 86 be a3 42 28 bc 4f a4 0c 3e 87 c7 bc 3e
       -0.26239008 -0.010269794 0.13734554 0.36870977
000180 27 17 66 be f7 2e 57 bc 90 89 17 be 3c 06 6c be
       -0.2246977 -0.013133756 -0.1479857 -0.23049253
000190 a7 7e 25 3e 73 ca ad be ad 1c 6b 3e 41 d1 2f 3e
       0.16161595 -0.3394352 0.22960158 0.17169668
0001a0 28 f4 92 3d 50 52 62 3e d2 7a a6 3d 26 67 8b be
       0.07175475 0.22101712 0.08128895 -0.27227134
0001b0 7c 68 94 3b 35 33 5b bd bd 58 ec 3d 59 25 37 bd
       0.004529057 -0.05351563 0.11540363 -0.044713352
0001c0 d3 8b e2 3d 04 6a 46 be 29 75 60 bb 13 75 0d 3e
       0.110618256 -0.19376379 -0.003424952 0.13814192
0001d0 55 c9 fb bb eb 24 bb bc 0f 44 f6 3c e9 80 3e bd
       -0.0076839128 -0.022844752 0.03006175 -0.046509657
0001e0 04 17 05 be 86 58 20 bd a9 0d bf be f8 6f 8e 3d
       -0.12997061 -0.039146923 -0.3731511 0.0695495
0001f0 69 fc a2 bd 1e 43 61 be a2 26 e7 3c cc 81 88 be
       -0.079583 -0.2199826 0.028216664 -0.26661527
000200 04 2e 5b be da b6 2d 3b a2 be 01 be b6 ee 34 3e
       -0.21404272 0.0026506693 -0.12670377 0.17669186
000210 57 eb 05 3e c2 30 2f be 40 f0 c3 be a5 38 08 be
       0.13078056 -0.17108443 -0.38269234 -0.13302858
000220 e8 30 11 be 20 21 d2 bc d0 22 d9 bd 07 a0 14 be
       -0.14178813 -0.02565056 -0.10602343 -0.1451417
000230 15 4d 65 be d2 68 52 be d4 2e 61 3c 56 76 44 be
       -0.22392686 -0.20547798 0.013744075 -0.19185767
000240 d4 19 bd bd 27 8a 7a bd 8e ad df 3e 63 16 b6 bd
       -0.09233442 -0.06116691 0.436871 -0.08890989
000250 1c d4 55 bd 55 09 c2 3d 5e 68 34 bc a6 b1 9b bd
       -0.052204236 0.09474436 -0.011011211 -0.07602243
000260 3a eb 62 bd 49 14 c5 bc e1 64 db 3d d4 9f 05 3e
       -0.05540011 -0.024057524 0.107126005 0.13049251
000270 79 12 01 3d d9 e7 a0 bd 1c 2c 08 3e 8e 1a 00 3e
       0.031511758 -0.078567214 0.13298076 0.1251013
000280 5d 1c 31 3e a4 9c bb 3d 32 fe c5 bc bd 0f c3 3d
       0.17295976 0.09160736 -0.024169061 0.09524486
000290 d3 61 d8 bd 25 12 47 3e e2 de b2 bd 68 95 9e 3e
       -0.105655335 0.19440515 -0.08733918 0.30973363
0002a0 4e ad d9 3d a9 8b bc bb 8f 70 97 be b9 e3 1c 3e
       0.10628758 -0.0057539535 -0.29578063 0.15321244
0002b0 43 95 c5 3e 8f 03 8f bc 5a ac 16 3e 88 23 11 3d
       0.3859044 -0.017457752 0.14714184 0.035434276
0002c0 a2 9f 2b 3d de 65 e0 3e d2 04 b1 be 98 ba af 3d
       0.041900285 0.43827718 -0.3457399 0.08580512
0002d0 d3 1d a6 3e 68 49 82 3e c7 cc 70 3d 96 fc 61 3e
       0.3244463 0.2544663 0.05878904 0.2206901
0002e0 65 c8 b6 3e 78 f8 0f bd 28 f3 c5 3d 8c e5 c9 bd
       0.35699764 -0.035149068 0.09665519 -0.09858236
0002f0 b5 9f 24 3e b2 52 83 3d 73 e9 ef 3b a2 ad 65 3c
       0.16076548 0.06412257 0.0073215305 0.014018448
000300 ce c2 10 bd bc e2 a9 3e 8c 89 12 bc b2 77 05 bd
       -0.03534203 0.33180797 -0.008943927 -0.032584853
000310 4e 08 92 be 54 81 f9 bd 54 65 11 bd c0 96 11 be
       -0.2852196 -0.121828705 -0.035497025 -0.14217663
000320 01 b4 2f bc 00 34 bc bd 2b 8f db bd e8 67 8d 3c
       -0.010724069 -0.09189606 -0.107206665 0.01726146
000330 4c ec cb 3d d4 b2 8b bd 00 82 a2 bd 9b 1f 22 bd
       0.099571794 -0.06821218 -0.07934952 -0.039580923
000340 35 21 0a be dc a5 3d be d5 c3 85 bd a4 a6 5a bb
       -0.1348923 -0.18520302 -0.065314926 -0.0033363486
000350 58 1e f6 3d b6 f9 0b be 41 6d 28 3d 35 a7 08 3e
       0.12017506 -0.13669476 0.041119818 0.13345034
000360 f2 a0 0c be 66 31 6e be ff a3 60 3d 28 0f c4 bd
       -0.13733271 -0.23261032 0.0548439 -0.09573203
000370 c4 10 d3 bc ab c8 99 bd 60 06 bc bd e6 65 ff bd
       -0.02576483 -0.075089775 -0.091809034 -0.124706075
000380 fc 54 38 bd bb 59 c8 3d c2 7f 24 be 42 9a 65 be
       -0.045002922 0.0978274 -0.1606436 -0.22422126
000390 24 84 a4 3d 2f 9d 1d be 47 2b 02 3d 4c 6c f8 bd
       0.08033016 -0.15391992 0.031779554 -0.12130031
0003a0 48 de 81 bd bd ef 0d be 20 c6 28 bd 3f 2c f2 3d
       -0.06341225 -0.13860984 -0.04120457 0.118248455
0003b0 e0 69 b8 3d be 46 f8 3c 86 ce f5 bd 63 d2 86 bd
       0.09004569 0.03030717 -0.12002282 -0.06583097
0003c0 7d 88 9f 3a 3a 45 8a bd 88 af 30 3d 7b c4 33 bd
       0.0012171414 -0.06751485 0.04313615 -0.04388855
0003d0 85 0a 12 3c 83 58 93 bd 2b 29 5a 3d b3 d3 a9 3c
       0.008913641 -0.07194617 0.053261917 0.020730829
0003e0 21 a3 6c 3d 84 f2 f3 bd 4b aa ca 3c 58 16 3a be
       0.05777276 -0.119114906 0.024739405 -0.18172586
0003f0 98 cb e1 bb 8b 3c 30 be 4f a6 20 be d1 a9 5b 3e
       -0.0068907253 -0.17210595 -0.15688442 0.21451499

temp_conv.bias f4 [8]
000000 e3 ee ad bc 55 d9 9b bd 47 cf bc 3d 1a 37 0e 3d
       -0.021232074 -0.07609812 0.092192225 0.034720518
000010 be 98 a3 bd 9a 77 9f 3c 8f 9b 7d bd ab d0 94 3d
       -0.07988118 0.01946621 -0.06191593 0.07266363

fc_layer.weight f4 [1, 160]
000000 78 7b c7 3e 7a ad 32 bd 75 81 53 3e 46 d0 fe bd
       0.38961387 -0.04362247 0.20654853 -0.12442069
000010 1f 46 e3 3d 92 5f 5f 3e 57 db 9a 3b 3b 33 d4 3c
       0.11097359 0.21813801 0.0047258544 0.025903335
000020 0f 7f ab bd dc 3a 32 bd a9 1d b3 3d cc fe a0 3d
       -0.08373844 -0.043513164 0.087458916 0.07861099
000030 7b d1 1a 3c ac 93 1e be de aa 3d 3d 0c ac 5f 3e
       0.009449358 -0.1548602 0.04630553 0.21842974
000040 ba 25 9a bd a4 2c 81 be 10 a7 87 3e c0 ed 55 be
       -0.07526727 -0.2522937 0.26494646 -0.20891476
000050 0e 99 87 be 29 80 49 be 19 a4 83 bc e2 20 77 bd
       -0.2648396 -0.19677795 -0.016069459 -0.060334094
000060 33 5b 6a 3d 3f b9 a4 3d 9d 5d c1 3e b7 ae 12 be
       0.05721588 0.080431454 0.37766734 -0.14324461
000070 6c fd 18 3e e8 84 c7 3e de 41 23 3e 76 67 83 be
       0.14940423 0.38968587 0.15943095 -0.25664872
000080 b0 98 bb be fa a2 62 3e 89 ca c2 bd 12 8e f5 bd
       -0.3663993 0.22132483 -0.09511287 -0.119899884
000090 01 9f 6d be 1c 39 40 be 7f dd aa 3e bc 38 81 bd
       -0.23205186 -0.18771785 0.33372113 -0.06309649
0000a0 fa 8b 01 3e 88 77 8a bd 8e 34 7e 3d 4f 92 0d bd
       0.12651053 -0.0676108 0.06206184 -0.03456336
0000b0 a1 ec 38 be 7f 4a b0 3d d1 b7 93 3d bc 09 ce 3d
       -0.18059017 0.08607959 0.072127946 0.100604504
0000c0 3a 72 b9 bd 54 71 31 3b 97 a2 16 3e 1d d2 9b 3e
       -0.0905499 0.0027075605 0.1471046 0.3043374
0000d0 c3 57 83 be 96 76 0c 3e 13 e0 f3 bd 5e b2 95 3d
       -0.25652894 0.13717112 -0.11907973 0.073094115
0000e0 18 b5 8d 3e fd b1 99 3e ff 1c 11 be 0c bf b5 bb
       0.27677226 0.30018607 -0.14171217 -0.005546456
0000f0 db 75 17 bd 98 d1 74 bd 98 2d 3d be 44 33 30 3e
       -0.03697763 -0.059770197 -0.18474424 0.17207056
000100 fa c6 12 3e de 58 51 3e a2 57 04 be 74 ff 47 3e
       0.14333716 0.20444056 -0.12924054 0.19531041
000110 e9 d1 2c be aa d0 9e be 27 99 3f 3c ce f4 23 3c
       -0.1687695 -0.31018573 0.011694229 0.010007096
000120 96 59 1d 3e 42 f9 55 be 67 b1 bc bd b6 2b e8 3d
       0.15366206 -0.20895866 -0.09213524 0.11336462
000130 22 e4 51 be 05 59 87 be 34 85 61 3d a6 69 17 3e
       -0.20497182 -0.26435104 0.055058673 0.14786395
000140 93 56 2e 3e 99 42 04 3e 18 f4 ea 3d 8a 7a fd ba
       0.17025213 0.1291603 0.114723384 -0.0019338888
000150 91 47 b3 3d bd 57 d5 bd ea d4 93 bd c9 94 22 bd
       0.087538846 -0.104171254 -0.072183445 -0.039692674
000160 bb 4e 14 bc 18 ce 1e 3e 21 de f8 3c 04 de 25 3c
       -0.009051974 0.15508306 0.030379357 0.010123733
000170 97 b3 2d 3d ea 59 05 3e 2c f4 29 3d 91 a5 8f 3d
       0.0424076 0.1302258 0.041492626 0.07014001
000180 56 55 c1 3d 65 e8 29 3e 8e ed ee 3c 39 60 02 bd
       0.09440105 0.16592558 0.02916601 -0.031830046
000190 e1 9f e0 3e c1 05 dd 3d b6 db 0a be 57 d5 0c 3e
       0.43871978 0.10792113 -0.13560376 0.13753258
0001a0 65 54 77 3d 89 d0 c3 3b 04 92 76 3b 25 c2 5e 3d
       0.06038322 0.005975787 0.0037623653 0.05438437
0001b0 a9 d1 9f be 9b 1c 30 3e f8 24 e7 3d 7a c6 fd 3b
       -0.31214646 0.17198412 0.11286348 0.0077446075
0001c0 b7 88 5e 3e d8 2a 6b 3d da 4f 37 be 00 98 27 be
       0.2173184 0.057413906 -0.17901555 -0.16366577
0001d0 08 dd 35 3e f8 70 f5 3d 53 b4 ea 3c fe 62 82 3d
       0.17760098 0.11984438 0.028650438 0.063665375
0001e0 3c 17 5d bd e9 8b 36 bd 66 2e 10 bd 2a bb 58 bd
       -0.053977236 -0.044567022 -0.0352005 -0.05291287
0001f0 35 f5 e9 bd 72 0a 81 3d 1a 3d 61 3d af c8 29 bc
       -0.11423723 0.063008204 0.05498991 -0.010362788
000200 ea 78 cf bd a0 9e b5 bd 8b d4 8a bc 79 93 d9 bd
       -0.101304844 -0.08868146 -0.016947052 -0.10623831
000210 5e d6 bc bc ec 17 5b 3d d3 30 06 be 81 6d 5c bd
       -0.023051437 0.05348961 -0.13104562 -0.05381537
000220 e5 22 a4 bc cf ad 8d 3c 28 52 2b 3d 55 5f 15 be
       -0.02003617 0.017294792 0.041826397 -0.14587148
000230 f4 96 1a be b4 e2 00 3d 57 e5 a4 3d 17 c6 39 bc
       -0.15096647 0.0314662 0.080515556 -0.011338732
000240 10 c8 d4 3c 14 06 48 bc 2e 27 f7 3d 46 47 50 bd
       0.025974303 -0.01220848 0.1206802 -0.05084922
000250 0e d3 15 3d 92 72 22 bd 71 c8 ea 3d 11 a7 c0 bd
       0.03657823 -0.039660044 0.114640124 -0.094068654
000260 ef 1f 53 3c 19 87 80 bd e2 81 9b 3d dc 43 fe bd
       0.0128860315 -0.06275768 0.075931326 -0.12415287
000270 b0 7f df bc ba 59 11 3e e4 c6 6c 3e 11 0c 6f bd
       -0.027282566 0.14194384 0.23122746 -0.058361117
