BahdanauGAN/epoch_150/generator.pt (torch, 4125 bytes, 11 tensors)

encoder.gru.weight_ih f4 [3, 1]
00000000: 458a 48bf 313d e23e 6543 473f
-0.7833598 0.4418731 0.7783721

encoder.gru.weight_hh f4 [3, 1]
00000000: a5d4 ebbe c765 833e d880 7c3e
-0.46060672 0.25663587 0.24658525

encoder.gru.bias_ih f4 [3]
00000000: f096 513f 5ba2 83bf 66fd 56bf
0.8187094 -1.0283922 -0.83980405

encoder.gru.bias_hh f4 [3]
00000000: 8e13 073f d6cc 843d 7858 c0be
0.52764213 0.06484382 -0.37567496

decoder.attn.weight f4 [10, 2]
00000000: ac8d e03e dfb2 b53e 498d 2f3e abfe 183f
00000010: 7977 1e3f 95f2 2cbf 97ea 223f 5cdb f23e
00000020: 93b9 b23e c909 f73e 920c 42be 4913 073f
00000030: 33ff a8be 045a 19bf 93bb aebe 598d 12bf
00000040: 36b7 b4be 65d5 b7be 98f8 5cbe d904 343f
0.43858087 0.3548803 0.1714374 0.5976359 0.6190105 -0.6755765 0.63639206 0.47432983
0.34907207 0.48249653 -0.18950108 0.527638 -0.33007202 -0.5990298 -0.34127483 -0.5724693
-0.3529603 -0.35904995 -0.21579206 0.70319897

decoder.attn.bias f4 [10]
00000000: 061a 823e ad80 69be 2d9d 923e 9dd6 db3e
00000010: 5359 bcbe 2b73 cd3e 3cc3 823c 31cf 2abe
00000020: d529 07bf fb65 0c3f
0.2541048 -0.22802992 0.2863554 0.42937174 -0.367869 0.4012693 0.015962236 -0.166806
-0.52798206 0.5484311

decoder.attn_combine.weight f4 [1, 10]
00000000: bc57 8d3e 741e b9bd 0dc9 15be 3cf3 a53e
00000010: 03d4 b43d c794 9abe 6e7e 56be 34d7 9fbe
00000020: beac a5be 83d2 ce3d
0.27606 -0.090390116 -0.14627476 0.32412136 0.088295005 -0.30191633 -0.20946667 -0.31218874
-0.32358354 0.10098746

decoder.gru.weight_ih f4 [3, 1]
00000000: 2879 2cbf 8f1b 0fbf e828 bbbd
-0.6737237 -0.55901426 -0.091386616

decoder.gru.weight_hh f4 [3, 1]
00000000: 68f8 eb3e 3213 c03e e3a7 a23e
0.46087956 0.37514645 0.31768712

decoder.gru.bias_ih f4 [3]
00000000: b167 083f ca1e 91be 3567 0a3f
0.5328322 -0.28343803 0.5406373

decoder.gru.bias_hh f4 [3]
00000000: 6178 083f 7b6c 0ebf a409 40bf
0.53308684 -0.5563428 -0.7501471
