BahdanauGAN/epoch_150/generator.pt (torch, 4125 bytes, 11 tensors)

encoder.gru.weight_ih f4 [3, 1]
0.10671335 0.6883193 0.7534276
00000000: 878c da3d b235 303f a2e0 403f

encoder.gru.weight_hh f4 [3, 1]
-0.9648523 1.0048655 -0.7876695
00000000: 8f00 77bf 6f9f 803f b5a4 49bf

encoder.gru.bias_ih f4 [3]
0.5941884 -0.8492527 -0.5578294
00000000: bb1c 183f a068 59bf e8cd 0ebf

encoder.gru.bias_hh f4 [3]
-0.6288442 0.042418003 0.7329464
00000000: effb 20bf 80be 2d3d 60a2 3b3f

decoder.attn.weight f4 [10, 2]
0.06284908 0.5180559 -0.8325775 -0.84874564 0.57818097 -0.26620865 -0.42207825 -1.0986218
-0.35817942 -0.23621468 0.6041857 0.6616597 -0.41972965 0.61137474 -0.45537022 1.065548
0.80313355 -0.31357792 -0.9305714 -0.90162045
00000000: 05b7 803d 509f 043f cd23 55bf 6547 59bf
00000010: ab03 143f 804c 88be a41a d8be a49f 8cbf
00000020: 4b63 b7be 43e2 71be eaab 1a3f 8862 293f
00000030: cee6 d6be 0e83 1c3f 4926 e9be e063 883f
00000040: 299a 4d3f 498d a0be ed39 6ebf 99d0 66bf

decoder.attn.bias f4 [10]
-0.6362503 -0.73300785 0.51121104 -0.80289173 0.27779013 0.53539073 -0.687767 0.6846989
-0.18693413 -0.81450844
00000000: 4de1 22bf 67a6 3bbf bade 023f 508a 4dbf
00000010: 823a 8e3e 5e0f 093f 8011 30bf 6d48 2f3f
00000020: a96b 3fbe a083 50bf

decoder.attn_combine.weight f4 [1, 10]
-0.122673675 -0.3870506 0.024579357 -0.45508772 -0.019118404 0.27064383 0.2059022 -0.4076495
0.42309937 -0.28050599
00000000: 563c fbbd 7f2b c6be a65a c93c 4201 e9be
00000010: 339e 9cbc d491 8a3e 07d8 523e 6fb7 d0be
00000020: 7ba0 d83e 7b9e 8fbe

decoder.gru.weight_ih f4 [3, 1]
-0.41220903 -1.077379 0.6013363
00000000: 100d d3be 8ee7 89bf 2df1 193f

decoder.gru.weight_hh f4 [3, 1]
-0.24207531 0.31580964 -0.7346867
00000000: 97e2 77be cdb1 a13e 6d14 3cbf

decoder.gru.bias_ih f4 [3]
-1.1435261 0.5823403 -0.37424326
00000000: 105f 92bf 4114 153f d09c bfbe

decoder.gru.bias_hh f4 [3]
-0.122161634 0.49279767 -0.72475445
00000000: e12f fabd fa4f fc3e 8289 39bf
