BahdanauGAN/epoch_100/discriminator.pt (torch, 4487 bytes, 5 tensors)

unmixing_layer.weight f4 [8, 1, 1]
-1.0397608 0.8305051 -1.1936431 -0.98579174 -0.49884722 -1.1349939 0.7080063 0.46664035
00000000: e216 85bf fb9b 543f 4cc9 98bf d95c 7cbf
00000010: e768 ffbe 7b47 91bf e73f 353f 7ceb ee3e

unmixing_layer.bias f4 [8]
0.5810578 -0.011581909 0.029989036 0.16980661 -0.47440422 0.19012624 0.9940389 0.78055245
00000000: 34c0 143f 0cc2 3dbc 91ab f53c c9e1 2d3e
00000010: 1ce5 f2be 74b0 423e 5579 7e3f 49d2 473f

temp_conv.weight f4 [8, 1, 50]
-0.1945716 -0.029910382 -0.14789635 -0.07431581 0.23147632 -0.015924204 -0.15279523 -0.20560387
-0.015357448 0.052632853 0.22108534 0.05555419 0.10004474 0.14295676 -0.121738315 0.18964134
-0.07474493 0.086527936 0.2163686 0.18159726 0.043624926 0.14159103 0.023741307 0.033466566
-0.14210029 -0.011162478 -0.14010133 0.043781728 -0.16476904 0.042629275 -0.22769493 -0.05724346
0.0955915 -0.06229194 0.19634253 0.09030512 0.13078907 -0.2068324 0.110195965 -0.05967045
0.04817202 0.07656533 -0.1308592 -0.0020131557 -0.048043206 0.08684205 0.022343496 0.018110469
0.019647038 0.055484142 0.08400772 -0.3156937 -0.051387213 0.07724759 -0.06385104 0.20497052
0.06721883 -0.2065035 0.007476536 -0.14607821 0.01635187 -0.17218406 -0.23941785 -0.33438325
0.19487438 0.044997275 -0.086376846 0.18702146 -0.13330805 -0.050815254 -0.38478267 0.038939916
0.041462544 -0.08776807 0.016774366 -0.20566595 -0.19078219 0.08346237 -0.34568605 -0.13318688
-0.000109979796 0.005201863 -0.12097809 0.34968427 -0.0847164 0.31582344 0.21420696 -0.11511797
0.18523838 0.14453389 0.12699555 -0.3821692 -0.18899944 -0.019897066 0.06935296 0.29830143
-0.22075294 -0.033917215 -0.12705386 -0.18792604 0.09074951 -0.3043778 0.17936227 0.22555941
0.04612499 0.18282247 0.051193535 -0.2681326 -0.058963694 -0.09314177 0.0993418 -0.04259417
0.037131876 -0.14258394 0.033610776 0.083237916 0.0062997863 -0.005608099 -0.013920707 -0.030316763
-0.09159696 -0.0644313 -0.315701 -0.03453313 -0.118933655 -0.16334803 0.014705781 -0.21618134
-0.1609502 0.012529123 -0.098719254 0.1340819 0.09107883 -0.16938943 -0.30798033 -0.14835991
-0.11604806 -0.019775635 -0.09847522 -0.13684465 -0.202772 -0.15371232 0.016993765 -0.16563354
-0.09010277 -0.009224135 0.36342698 -0.10890645 -0.039592095 0.107774444 -0.017944284 -0.045325603
-0.032172274 -0.09818941 0.051268764 0.078111246 0.06024346 -0.09496255 0.121064834 0.135009
0.15163107 0.12101795 -0.005863183 0.07918594 -0.050685767 0.19623755 -0.07082461 0.21155341
0.07228842 -0.0007035405 -0.26480344 0.13104005 0.30450368 0.03466592 0.19152808 -0.02114556
0.023592716 0.29552606 -0.24352095 0.0672722 0.27720323 0.23469266 0.07202794 0.20773286
0.26953086 -0.00033699814 0.07465645 -0.078964464 0.17147194 0.0060058003 0.0019733883 -0.032567758
-0.040978614 0.2962236 0.030203365 0.010460138 -0.25229427 -0.03697665 -0.0002920792 -0.0966584
-0.005627085 -0.1093618 -0.08881137 0.02686616 0.0992634 -0.04669689 -0.09267598 0.000705929
-0.11768177 -0.16884805 -0.04981914 -0.005420439 0.11763348 -0.13976096 0.025882669 0.12558037
-0.13335194 -0.19520053 0.06035335 -0.0883001 -0.018515911 -0.054020435 -0.066768385 -0.12479521
-0.029746968 0.09530381 -0.13842122 -0.2010892 0.07328126 -0.15055358 0.026092721 -0.10488467
-0.052537713 -0.14735113 -0.058611166 0.09056201 0.09381189 0.03234533 -0.113609925 -0.07220849
0.014798034 -0.04583533 0.032789066 -0.05049294 -0.0079774475 -0.08883589 0.029912777 0.011177256
0.05403087 -0.118132815 -0.013124882 -0.21927908 0.030388353 -0.20038109 -0.16262656 0.14340493
00000000: c73d 47be 9e06 f5bc 2472 17be e332 98bd
00000010: 2108 6d3e 7a73 82bc 5a76 1cbe d289 52be
00000020: ce9d 7bbc 8c95 573d 3264 623e ca8c 633d
00000030: 42e4 cc3d 4263 123e f051 f9bd 5731 423e
00000040: df13 99bd 8f35 b13d bb8f 5d3e a2f4 393e
00000050: 0db0 323d 3dfd 103e 217d c23c 3d14 093d
00000060: bd82 11be d3e2 36bc b976 0fbe 7854 333d
00000070: 37b9 28be 099c 2e3d dc28 69be 1e78 6abd
00000080: 7ac5 c33d d525 7fbd 040e 493e e4f1 b83d
00000090: 92ed 053e dfcb 53be 6cae e13d 0069 74bd
000000a0: 0650 453d 49ce 9c3d f4ff 05be 26ef 03bb
000000b0: f4c8 44bd 3fda b13d b509 b73c 685c 943c
000000c0: d3f2 a03c 5743 633d 3d0c ac3d 9ba2 a1be
000000d0: 667b 52bd fc33 9e3d 56c4 82bd cbe3 513e
000000e0: 07aa 893d a775 53be bbfd f43b 8795 15be
000000f0: 5bf4 853c 0551 30be f429 75be 4834 abbe
00000100: 268d 473e 104f 383d 58e6 b0bd 8e82 3f3e
00000110: e881 08be a823 50bd 3c02 c5be 767f 1f3d
00000120: a1d4 293d bfbf b3bd 656a 893c 189a 52be
00000130: 685c 43be 52ee aa3d c3fd b0be 2462 08be
00000140: f4a4 e6b8 6474 aa3b 5cc3 f7bd d109 b33e
00000150: cb7f adbd 9cb3 a13e 1259 5b3e f8c2 ebbd
00000160: 21af 3d3e b100 143e 1f0b 023e aeab c3be
00000170: 1289 41be 2cff a2bc ed08 8e3d f7ba 983e
00000180: 0f0d 62be c7ec 0abd 681a 02be af6f 40be
00000190: e1da b93d 68d7 9bbe beaa 373e 0cf9 663e
000001a0: 8fed 3c3d d035 3b3e 50b0 513d ad48 89be
000001b0: ea83 71bd 1dc1 bebd b773 cb3d 3977 2ebd
000001c0: 9817 183d 8601 12be 74ab 093d a478 aa3d
000001d0: 706e ce3b 25c4 b7bb ad13 64bc dc5a f8bc
000001e0: 3097 bbbd 8ff4 83bd 90a3 a1be 9c72 0dbd
000001f0: 7d93 f3bd b544 27be 84f0 703c a45e 5dbe
00000200: 21d0 24be f346 4d3c 522d cabd c44c 093e
00000210: 8a87 ba3d 6c74 2dbe 99af 9dbe a9eb 17be
00000220: 9baa edbd 8300 a2bc 60ad c9bd 0121 0cbe
00000230: 77a3 4fbe c366 1dbe 8236 8b3c d79b 29be
00000240: cd87 b8bd d420 17bc 1a13 ba3e 580a dfbd
00000250: 522b 22bd d9b8 dc3d e4ff 92bc 57a7 39bd
00000260: 13c7 03bd 8817 c9bd 32ff 513d caf8 9f3d
00000270: d9c1 763d ba7b c2bd d7f0 f73d cd3f 0a3e
00000280: 2d45 1b3e 42d8 f73d f21f c0bb 3d2c a23d
00000290: e19b 4fbd 7ff2 483e 7e0c 91bd 75a1 583e
000002a0: f30b 943d ce6d 38ba 5194 87be 5d2f 063e
000002b0: e8e7 9b3e dafd 0d3d f01f 443e 7439 adbc
000002c0: 8345 c13c 314f 973e 8e5d 79be 02c6 893d
000002d0: 95ed 8d3e 4653 703e 6283 933d ecb7 543e
000002e0: f3ff 893e 20af b0b9 7be5 983d 1fb8 a1bd
000002f0: 5796 2f3e 4ecc c43b f653 013b c565 05bd
00000300: 31d9 27bd 9faa 973e 0c6d f73c 0061 2b3c
00000310: b72c 81be d474 17bd 3522 99b9 d7f4 c5bd
00000320: 6963 b8bb 14f9 dfbd bce2 b5bd 6c16 dc3c
00000330: 9c4a cb3d 3d45 3fbd e7cc bdbd 180e 393a
00000340: 2403 f1bd 81e6 2cbe 280f 4cbd f09d b1bb
00000350: d2e9 f03d 7f1d 0fbe e407 d43c 2498 003e
00000360: 698d 08be a6e2 47be 1335 773d afd6 b4bd
00000370: aeae 97bc 8844 5dbd ddbd 88bd a294 ffbd
00000380: eaaf f3bc a52e c33d 4bbe 0dbe 54ea 4dbe
00000390: 7c14 963d b82a 1abe 67c0 d53c c6cd d6bd
000003a0: c931 57bd 37e3 16be 4312 70bd 9378 b93d
000003b0: 7320 c03d 897c 043d 52ac e8bd 0be2 93bd
000003c0: 7473 723c d4bd 3bbd d44d 063d afd1 4ebd
000003d0: d7b3 02bc 97ef b5bd a40b f53c cf20 373c
000003e0: 794f 5d3d 9eef f1bd bf09 57bc b28a 60be
000003f0: fff0 f83c b330 4dbe 9487 26be bed8 123e

temp_conv.bias f4 [8]
-0.02391559 -0.07233041 0.08728053 0.038590558 -0.08345817 0.014627261 -0.05820966 0.070347175
00000000: a1ea c3bc f721 94bd 22c0 b23d 2211 1e3d
00000010: 1eec aabd 2ea7 6f3c 416d 6ebd 2e12 903d

fc_layer.weight f4 [1, 160]
0.2643108 -0.04241325 0.17214768 -0.08057272 0.07682033 0.15977521 0.012083794 0.033641882
-0.063205175 -0.035429724 0.07348223 0.09042296 0.016008412 -0.10315766 0.07916891 0.14135133
-0.055635586 -0.19219503 0.20605133 -0.16940805 -0.207394 -0.13292935 0.053772576 -0.05412526
0.018109545 0.069396816 0.32596508 -0.13809676 0.08525276 0.32197258 0.1153858 -0.24071412
-0.30490875 0.20025678 -0.0793349 -0.10750453 -0.18492247 -0.14711109 0.24343123 -0.09033629
0.09993521 -0.037883557 0.075340234 -0.014274645 -0.13749085 0.054597672 0.07157359 0.09818649
-0.094985746 0.017489072 0.1422363 0.24340577 -0.21244115 0.121573746 -0.051018868 0.102082334
0.2319082 0.22327723 -0.06119771 -0.03337338 -0.059707437 -0.03824597 -0.10663606 0.16305204
0.072050475 0.15228765 -0.11867911 0.14643206 -0.1404822 -0.25236017 -0.017127283 0.017526662
0.13887143 -0.16465531 -0.059379164 0.03799125 -0.17342755 -0.2075932 0.004646062 0.09269023
0.13323174 0.110342875 0.09663759 0.005014092 0.08338376 -0.06307457 -0.039503086 -0.037771042
-0.006616209 0.14229894 0.020036738 0.019018276 0.04014726 0.12050744 0.046650376 0.04760149
0.08659054 0.14553487 0.020666437 -0.01925952 0.29354435 0.110723324 -0.03885204 0.12193837
0.06470407 0.027746717 -0.017801069 0.031057514 -0.26796675 0.15049222 0.08827917 0.038637824
0.1981046 0.07055087 -0.08800723 -0.14202589 0.14414836 0.077240214 -0.009774324 0.075235
-0.02200845 -0.04999578 -0.0386873 -0.04941982 -0.112377375 0.059014246 0.054116152 -0.01607964
-0.10731932 -0.07023917 -0.00959948 -0.10176118 -0.022214068 0.041612186 -0.1138057 -0.05483371
-0.019453708 0.016556144 0.030170219 -0.11727074 -0.08638969 0.055683054 0.0550156 -0.008835785
0.0021903124 0.010880924 0.10109431 -0.06940794 0.04767385 -0.033032846 0.0959221 -0.077811666
-0.008359799 -0.07187733 0.06993673 -0.09319446 -0.026729649 0.11092749 0.13774805 -0.04613367
00000000: bf53 873e 84b9 2dbd 7b47 303e 4f03 a5bd
00000010: fa53 9d3d 1d9c 233e 1bfb 453c 12cc 093d
00000020: b771 81bd c21e 11bd da7d 963d ac2f b93d
00000030: 1324 833c 5344 d3bd 4f23 a23d 67be 103e
00000040: 24e2 63bd c6ce 44be 1fff 523e 4e79 2dbe
00000050: 185f 54be a21e 08be a240 5c3d 73b2 5dbd
00000060: 785a 943c eb1f 8e3d e5e4 a63e 3d69 0dbe
00000070: 0099 ae3d 97d9 a43e 644f ec3d c37d 76be
00000080: 001d 9cbe 1d10 4d3e 567a a2bd 562b dcbd
00000090: 515c 3dbe 4aa4 16be 0946 793e 3c02 b9bd
000000a0: d5aa cc3d ca2b 1bbd fb4b 9a3d 33e0 69bc
000000b0: 67ca 0cbe cfa1 5f3d 2d95 923d 0016 c93d
000000c0: e387 c2bd 3e45 8f3c 65a6 113e 5d3f 793e
000000d0: 2c8a 59be a8fb f83d 29f9 50bd 8b10 d13d
000000e0: 5879 6d3e c9a2 643e 73aa 7abd 86b2 08bd
000000f0: c98f 74bd cea7 1cbd 0264 dabd 1df7 263e
00000100: 338f 933d 4bf1 1b3e 090e f3bd 49f2 153e
00000110: 91da 0fbe 5a35 81be 844e 8cbc 1394 8f3c
00000120: 5034 0e3e 679b 28be 9137 73bd b79c 1b3d
00000130: fe96 31be 5093 54be fe3d 983b 60d4 bd3d
00000140: e76d 083e 72fb e13d eee9 c53d 414d a43b
00000150: 1bc5 aa3d 3d2d 81bd fdcd 21bd cfb5 1abd
00000160: c9cc d8bb d0b6 113e 1624 a43c 37cc 9b3c
00000170: 7471 243d 9bcc f63d 7714 3f3d c8f9 423d
00000180: 6256 b13d 1807 153e a94c a93c 24c6 9dbc
00000190: 724b 963e e9c2 e23d 5123 1fbd d3ba f93d
000001a0: 9183 843d 154d e33c 8cd3 91bc 546c fe3c
000001b0: f032 89be a21a 1a3e b6cb b43d b242 1e3d
000001c0: efdb 4a3e f97c 903d 223d b4bd 3c6f 11be
000001d0: a19b 133e 1e30 9e3d 7c24 20bc cf14 9a3d
000001e0: 114b b4bc 60c8 4cbd 9376 1ebd 706c 4abd
000001f0: 1c26 e6bd ecb8 713d e6a8 5d3d 73b9 83bc
00000200: 3bca dbbd 8ed9 8fbd 2347 1dbc 2a68 d0bd
00000210: 47fa b5bc 8a71 2a3d f612 e9bd 5099 60bd
00000220: 625d 9fbc c0a0 873c 8927 f73c a42b f0bd
00000230: 14ed b0bd ea13 643d 0a58 613d f8c3 10bc
00000240: 588b 0f3b e745 323c 890a cf3d c025 8ebd
00000250: a845 433d 734d 07bd ce72 c43d b95b 9fbd
00000260: 8af7 08bc 6c34 93bd fd3a 8f3d bddc bebd
00000270: 23f8 dabc f42d e33d d30d 0d3e a9f6 3cbd
