BahdanauGAN/epoch_100/discriminator.pt (torch, 5709 bytes, 5 tensors)

temp_conv.weight f4 [1, 1, 50]
0	0x3e9f5f7b	0.31127533
1	0x3ecd2f95	0.40075365
2	0x3ed46363	0.41482076
3	0x3ee2eb6b	0.44320235
4	0x3ecda473	0.40164527
5	0x3efeffd3	0.49804553
6	0x3ea62df9	0.3245695
7	0x3f073066	0.52808225
8	0x3ef722ed	0.48268834
9	0x3ee30ba9	0.44344833
10	0x3eeb95f0	0.4601283
11	0x3f08aed1	0.5339175
12	0x3ebff5d4	0.3749224
13	0x3eb70019	0.35742262
14	0x3ee45d65	0.44602504
15	0x3eb1d30b	0.34731326
16	0x3f08e926	0.53480756
17	0x3ed26048	0.41089082
18	0x3ea404d5	0.32034937
19	0x3f0630cd	0.52418214
20	0x3eabe0d5	0.3356997
21	0x3f1035c4	0.5633204
22	0x3ef06a77	0.46956226
23	0x3ef31484	0.4747659
24	0x3eb86eb2	0.36021954
25	0x3ee0abf6	0.43881196
26	0x3eb3c802	0.3511353
27	0x3ea2f9b1	0.31831124
28	0x3f02ee11	0.5114451
29	0x3ec455fd	0.38346854
30	0x3ea880cd	0.32910767
31	0x3ede9993	0.43476543
32	0x3ef349c6	0.47517222
33	0x3ecd4b1c	0.40096366
34	0x3ecd408a	0.40088302
35	0x3dfdd0e8	0.12393361
36	0x3ea77153	0.32703647
37	0x3eabcd74	0.33555186
38	0x3f007f8b	0.50194615
39	0x3e426906	0.18985376
40	0x3eece6f8	0.46269965
41	0x3eb7fdcf	0.35935828
42	0x3ec05c63	0.37570485
43	0x3e86f82a	0.2636121
44	0x3ecf647c	0.4050635
45	0x3e987cb3	0.29782638
46	0x3e88a6aa	0.26689655
47	0x3dcc8238	0.09985775
48	0x3eb3e092	0.3513227
49	0x3ee7a33b	0.45241722

temp_sel.0.w1 f4 [1, 200]
0	0xbe9a0d93	-0.3008848
1	0xbb8b2780	-0.004246652
2	0xbabbb933	-0.0014322161
3	0xbbbdaf75	-0.0057887384
4	0xbb84232e	-0.004032514
5	0x3b7c8652	0.003853221
6	0xb7419999	-1.1539459e-05
7	0xbc15156d	-0.009099347
8	0xbbaed714	-0.005335698
9	0x3a0415c2	0.00050386426
10	0xbe8a3219	-0.26991346
11	0xbbf8d74c	-0.0075940248
12	0x3a9bc37b	0.0011883819
13	0xbbd38a33	-0.0064556836
14	0x3b9dd066	0.004816103
15	0xbbdcccab	-0.0067382655
16	0xbc124337	-0.008927158
17	0x399bda66	0.00029726623
18	0xbba4ffb6	-0.005035366
19	0xbbd344bb	-0.0064474023
20	0xbe5f9991	-0.21835925
21	0x3b96a976	0.004597838
22	0xbb88ffe1	-0.004180894
23	0x3a84ef1f	0.0010142064
24	0x3bf1dd2b	0.0073811016
25	0xba989a3d	-0.0011642646
26	0x3bd615ab	0.0065333447
27	0x3b818d2e	0.0039535975
28	0xbb6e2723	-0.0036339245
29	0x3be1f41c	0.006895555
30	0x3e3f5b35	0.18687136
31	0x3b41a23d	0.0029546164
32	0x3bc88a0d	0.0061199726
33	0xbb9da7e9	-0.004811276
34	0xba2a1533	-0.0006488144
35	0x39fa023d	0.00047685383
36	0x3c0647fb	0.008195872
37	0xba188b85	-0.000581913
38	0xb9af9d47	-0.00033495782
39	0x3bea0823	0.0071420833
40	0x3e83c127	0.257333
41	0xbbe28900	-0.0069133043
42	0x3ba8ea3d	0.0051548765
43	0x3b8859bb	0.0041610873
44	0xbc194e7b	-0.00935709
45	0xbc163c30	-0.009169623
46	0x3a0a7933	0.00052823423
47	0xbc190caf	-0.009341403
48	0xbb4f801e	-0.0031662057
49	0xbb9797cf	-0.0046262513
50	0x3ef0bc0c	0.47018468
51	0x3baeed57	0.0053383517
52	0x3c1360cb	0.008995245
53	0xbbda5dc5	-0.00666401
54	0xbbe505e6	-0.0069892285
55	0x3b885902	0.004161001
56	0xbc031f9d	-0.008003143
57	0xbaab9ec2	-0.0013093578
58	0xbba1e3de	-0.004940494
59	0xbb822d5c	-0.0039726924
60	0x3f039d62	0.5141202
61	0xbafcda7b	-0.0019291186
62	0x3b198da4	0.0023430372
63	0xbb81880f	-0.003952987
64	0xba8f127b	-0.0010915542
65	0x3ac1b5e1	0.0014778936
66	0x3b895233	0.004190707
67	0xbb03c4f6	-0.0020106412
68	0x3b118ddc	0.00222098
69	0xbb18a447	-0.0023291276
70	0xbea5d5ff	-0.3238983
71	0x3b6194c2	0.0034420942
72	0x3b2ffc6b	0.0026853334
73	0x3bbd3b17	0.0057748663
74	0xbc0ac9fc	-0.008471008
75	0xb9c195c2	-0.00036923407
76	0xbbabc312	-0.00524176
77	0x3b67082e	0.0035252678
78	0xbc038df6	-0.008029452
79	0x3bdbaac7	0.006703708
80	0xbea0eba5	-0.31429783
81	0xba94fc99	-0.0011366784
82	0x3b485242	0.0030566608
83	0x3bce66c7	0.006298873
84	0xbac59566	-0.0015074431
85	0xbb7daf61	-0.003870927
86	0xbbb09e6b	-0.0053899786
87	0x3a06f229	0.0005147779
88	0xbc0ce897	-0.008600376
89	0xbc12f7e1	-0.008970232
90	0x3ed5a1db	0.41725048
91	0x3ae2ec29	0.0017312813
92	0xbb945c1c	-0.004527582
93	0xb9b8a8f5	-0.00035221098
94	0x3bd9f19e	0.0066511175
95	0x3bcec34a	0.0063099014
96	0x3c00529f	0.007832198
97	0xbbb7be92	-0.0056074345
98	0x3ab2ad47	0.0013631963
99	0xbc11bcd9	-0.008895122
100	0x3ec055fb	0.37565598
101	0xbbb4ec35	-0.005521322
102	0x3bd2a854	0.0064287577
103	0x3b26c72e	0.002544831
104	0x3b00f3a4	0.001967647
105	0xbb967087	-0.004591051
106	0x3c100836	0.00879102
107	0xbb6ba0f0	-0.003595408
108	0xbbf1e533	-0.007382059
109	0x3bf66f42	0.007520587
110	0xbea0ef37	-0.31432506
111	0x3c0f5d64	0.008750293
112	0xbb066f80	-0.0020513237
113	0x3a077e3d	0.0005168652
114	0xbbc84d2e	-0.006112716
115	0xbb00a31f	-0.0019628478
116	0x3bad5902	0.0052901516
117	0x3b97ff1e	0.0046385666
118	0xbbd333cf	-0.006445385
119	0x3bd6ad69	0.006551434
120	0x3ebd2ba7	0.36947367
121	0x3c1b231c	0.00946882
122	0x3aad1e29	0.0013207841
123	0x3b78d3bd	0.0037968003
124	0xbc0e6db9	-0.008693152
125	0xbc13b95c	-0.009016361
126	0x39f08599	0.00045875905
127	0xbab8ea47	-0.0014107906
128	0x3b557c66	0.0032575368
129	0xbb630c29	-0.00346447
130	0xbeb8cb94	-0.36092818
131	0x3c14ccf4	0.009082068
132	0xbbb33d35	-0.005469943
133	0x3be3b330	0.006948851
134	0x3b902c30	0.004399799
135	0x3c05334f	0.008129909
136	0x3b52caf0	0.0032164417
137	0xbb499e85	-0.003076465
138	0x38986eb8	7.268548e-05
139	0x3bf5553d	0.007486968
140	0xbeae6005	-0.34057632
141	0xbbdf7b2b	-0.0068201027
142	0x3bf3f19c	0.0074445736
143	0xbc0f1c02	-0.008734705
144	0x3bc771bb	0.006086556
145	0xbc16ab0d	-0.009196055
146	0xbb6a9fbd	-0.0035800778
147	0x3b947552	0.0045305872
148	0xba6929c2	-0.0008894467
149	0x3bfdfc2e	0.0077510094
150	0xbea74d43	-0.32676134
151	0x3aa6227b	0.0012675071
152	0xbbb8263d	-0.0056197927
153	0x3b8f62ee	0.004375807
154	0xbacc027b	-0.0015564704
155	0x3b947c73	0.004531437
156	0x3b88a445	0.004169973
157	0xbb28da00	-0.0025764704
158	0x3bfe2b8c	0.007756656
159	0xba22e43d	-0.000621382
160	0x3e9f0907	0.31061575
161	0xbc02812b	-0.007965366
162	0xbbc86957	-0.006116073
163	0xbbb55f3d	-0.005535035
164	0x3b076933	0.002066207
165	0x3a1e5652	0.00060400844
166	0xbb53bb14	-0.0032307552
167	0x3bf9085e	0.0075998744
168	0x3bd2899e	0.0064250967
169	0xbc00e5bd	-0.007867274
170	0x3e9bb464	0.30411065
171	0x3baf9e94	0.00535948
172	0x3b582ad7	0.003298452
173	0xbc164d0e	-0.009173645
174	0xbb0d459f	-0.002155639
175	0xbad401b8	-0.0016174829
176	0x3c094acf	0.008379652
177	0x3b490d24	0.0030677998
178	0xbb71efc7	-0.00369166
179	0x3bf29705	0.007403257
180	0xbeb8b280	-0.36073685
181	0xbb7928e1	-0.003801875
182	0x3c16d522	0.009206088
183	0xbba474cf	-0.0050188075
184	0x3b90561c	0.0044047963
185	0x3c0516ca	0.008123109
186	0x3c139f47	0.009010143
187	0xbacaafeb	-0.0015463805
188	0xbc1d3d58	-0.009597145
189	0xbc0d0478	-0.008607022
190	0x3eb4d549	0.35318974
191	0x3bdca27d	0.0067332373
192	0x3a7762cc	0.0009437024
193	0x3b8d9400	0.0043206215
194	0xb9cf663d	-0.0003955829
195	0xbbb2e887	-0.0054598483
196	0xbb5c752e	-0.003363918
197	0xbb3a5d9e	-0.0028437148
198	0xbc16e312	-0.009209411
199	0xbbccd2d4	-0.0062507186

temp_sel.0.w2 f4 [1, 200]
0	0x3eab8152	0.334971
1	0x3b373429	0.0027954674
2	0xbb6f73d2	-0.003653754
3	0x3b86f4b3	0.004118526
4	0x3c0cc672	0.008592235
5	0x3c20fa36	0.00982528
6	0x3c17778d	0.009244812
7	0x3b3bc870	0.0028653406
8	0x3bc1022e	0.0058901524
9	0x3af47847	0.0018651568
10	0xbe1faace	-0.155925
11	0x3bf97af3	0.0076135336
12	0x3b9f8efb	0.0048693395
13	0x3c0dbdad	0.008651179
14	0x3bf0303b	0.0073299683
15	0xbbb8a697	-0.0056350934
16	0xbb83cec7	-0.0040224525
17	0x3bfd6efd	0.007734178
18	0x3bd76d07	0.0065742764
19	0x3b97d5f8	0.0046336614
20	0xbe880a54	-0.2657038
21	0xbb27976b	-0.002557243
22	0xba2b60f6	-0.00065375806
23	0x3bad0d26	0.0052811084
24	0xbb6ab8c2	-0.003581569
25	0xba5e770a	-0.0008486366
26	0xbc1cf1db	-0.009579147
27	0x3c197362	0.009365888
28	0xba8cd352	-0.0010744131
29	0x3aae76c2	0.0013310539
30	0xbee414a0	-0.44546986
31	0xbb8ece5f	-0.0043580974
32	0x3b8871b3	0.0041639446
33	0x3bc35b59	0.005961817
34	0x3bcceebd	0.0062540458
35	0xbc0dd34e	-0.008656336
36	0xbb53165c	-0.0032209372
37	0x3aa7025c	0.0012741792
38	0xbc0f41b2	-0.00874369
39	0xbb58d57b	-0.0033086229
40	0xbef36707	-0.4753954
41	0x3b0b02c7	0.0021211372
42	0x3bd62578	0.0065352283
43	0x3bb74c0a	0.0055937814
44	0x3c036c64	0.008021448
45	0x3bf31b2e	0.0074190116
46	0xbbdb8a0a	-0.006699805
47	0xbbc1f5fb	-0.0059192157
48	0x3bad94dc	0.0052972864
49	0x3ba57f73	0.0050505935
50	0xbef6d21b	-0.48207173
51	0x3a15b35c	0.00057106256
52	0xb9d4e6b8	-0.0004060769
53	0xbbbea53b	-0.005818037
54	0xbb150da9	-0.0022743738
55	0xbc1b92a1	-0.009495408
56	0xbc202ea2	-0.009776743
57	0xba9bd1eb	-0.0011888122
58	0xbab194eb	-0.0013548409
59	0x3a99ebe1	0.0011743271
60	0xbf0c7d34	-0.54878545
61	0x3b7d4c00	0.0038650036
62	0x3c1ce54e	0.009576155
63	0x3b9c2e0f	0.004766233
64	0xbbc687a6	-0.006058651
65	0xbc131345	-0.008976762
66	0x3a72a2e1	0.0009255838
67	0x3aaa3529	0.0012985814
68	0x3a8df87b	0.0010831499
69	0x39d0a5eb	0.0003979647
70	0xbe7e59fa	-0.24839011
71	0x3c1b7ec0	0.009490669
72	0xbc0b75f9	-0.008512014
73	0xbbe393f5	-0.006945128
74	0xbb08ab2e	-0.0020853984
75	0x3bc53e02	0.006019355
76	0x39c1f63d	0.0003699529
77	0xbc17e4de	-0.009270875
78	0xbbb2166b	-0.0054348013
79	0xbb8090d9	-0.003923517
80	0xbeaa2111	-0.33228353
81	0x3c04a2f6	0.008095494
82	0xbb8d0d66	-0.0043045757
83	0x3c161c37	0.009162
84	0xbb751400	-0.0037395954
85	0xbacbaf14	-0.0015539848
86	0xbc20c5f2	-0.009812819
87	0xbc0b32e1	-0.008496017
88	0xbb9443cd	-0.004524684
89	0x3b0fc438	0.0021937024
90	0xbed65874	-0.4186436
91	0xbbc5d46b	-0.006037285
92	0x3c071b24	0.008246217
93	0x3b5b5fae	0.0033473778
94	0xb944b5c2	-0.00018759727
95	0xbbbd218f	-0.0057718228
96	0xbb676119	-0.0035305677
97	0x3bdd0538	0.006745007
98	0x3be7b219	0.0070707914
99	0xbacb0614	-0.0015489482
100	0xbedd3cd3	-0.43210468
101	0xbbcde14f	-0.0062829624
102	0x3bb28a19	0.0054485914
103	0xbbab965e	-0.005236431
104	0xbabbcceb	-0.0014328038
105	0x3b6d6966	0.0036226152
106	0x3be03687	0.0068424377
107	0x3bb9eea1	0.0056741987
108	0xbb37f70a	-0.002807083
109	0xbbfd0d0f	-0.007722504
110	0xbeda3c02	-0.42623907
111	0xbbdb0a45	-0.006684574
112	0x3c213e25	0.009841477
113	0xbb165914	-0.0022941278
114	0x3b6b08c2	0.0035863374
115	0xbab69952	-0.0013931191
116	0xba22d185	-0.00062110304
117	0x3bf133e3	0.0073609217
118	0x3b5501b3	0.0032502234
119	0x3acc84a4	0.0015603495
120	0xbedc312a	-0.4300626
121	0xbbd7412e	-0.0065690493
122	0xbaee6752	-0.0018188751
123	0x3a89411f	0.0010471678
124	0xb9b70385	-0.00034907102
125	0xbc1f3e07	-0.009719378
126	0xbbe060bb	-0.0068474687
127	0xbc159d2b	-0.00913171
128	0x3a9d6599	0.0012008428
129	0x3b42e8a4	0.0029740715
130	0xbed2dce4	-0.4118415
131	0x3bcd6a70	0.006268792
132	0x3b712fa3	0.0036802075
133	0x3beb419e	0.007179453
134	0xbbcee021	-0.0063133393
135	0xbba765d2	-0.0051085735
136	0x3be9d466	0.0071359156
137	0xbb803a94	-0.003913233
138	0xbacbc95c	-0.0015547681
139	0x3b4c391e	0.0031161974
140	0xbee1553b	-0.44010338
141	0x3ba46061	0.005016372
142	0x3c141b87	0.009039766
143	0xbc135d6a	-0.00899444
144	0xbc02c8bf	-0.007982432
145	0x3aa8a4f6	0.0012866545
146	0xbb9bb7ee	-0.0047521507
147	0x3a9634f6	0.0011459875
148	0x3c01e7c7	0.007928795
149	0xb9b83029	-0.00035131097
150	0xbea41446	-0.32046717
151	0xbbeb6d12	-0.007184633
152	0xbb038429	-0.0020067787
153	0x3c0ecd1f	0.008715897
154	0x3ab8e57b	0.0014106476
155	0xbbcfbce6	-0.006339657
156	0x3c0a123d	0.0084272
157	0x3c2299c6	0.009924358
158	0xbc138125	-0.009002958
159	0x3c04ac92	0.008097785
160	0xbea34519	-0.31888655
161	0x3b65914c	0.003502923
162	0x3bc05285	0.005869212
163	0xba76fc3d	-0.00094217417
164	0x3b72561e	0.00369776
165	0xbbf8f83b	-0.0075979508
166	0x3b5f69f5	0.0034090255
167	0xbc09ef78	-0.00841891
168	0xbb1f7794	-0.0024332749
169	0x3b00200f	0.0019550358
170	0xbea7d624	-0.32780564
171	0x3c1162c0	0.0088736415
172	0x3bc3c5e9	0.0059745205
173	0xbb9fb829	-0.0048742485
174	0xbc1a3304	-0.009411577
175	0x3c10fabc	0.008848842
176	0x3aad5ea4	0.0013227058
177	0x3c1420cd	0.009041023
178	0x3c0e45c7	0.008683628
179	0xbbfcc3f8	-0.007713791
180	0xbeb08235	-0.3447434
181	0x3aef20a3	0.001824398
182	0x3bd0b952	0.006369748
183	0xbc0e6e26	-0.008693254
184	0xbb51bca4	-0.0032003308
185	0x3af7e199	0.0018911838
186	0x3bb6730d	0.0055679143
187	0x39836385	0.00025060415
188	0xbbc45cee	-0.0059925234
189	0xbba07d57	-0.004897754
190	0xbea99198	-0.33118892
191	0xbba2fb6e	-0.0049738204
192	0xba917c5c	-0.0011099684
193	0x3c20bfed	0.009811384
194	0xb915e75c	-0.00014295935
195	0x3c0e1b74	0.0086735375
196	0xbc03f0f3	-0.008053052
197	0xba630599	-0.0008660197
198	0xbc22c094	-0.0099336095
199	0x3b8fefca	0.0043925988

temp_sel.0.b f4 [1, 200]
0	0xbecf033d	-0.40432158
1	0x3b772338	0.00377102
2	0xbbdec269	-0.006798078
3	0x3bb5bcc2	0.0055461833
4	0xbc136a47	-0.008997506
5	0x3c213a64	0.009840582
6	0x3a7d9199	0.000967288
7	0x3b2ef700	0.0026697516
8	0xbb886a29	-0.004163046
9	0x3c152647	0.009103364
10	0xbeacfc23	-0.33786115
11	0x3bea6bd2	0.0071539665
12	0xb9a49029	-0.00031387925
13	0xbb0799cd	-0.0020691038
14	0x3bef5866	0.007304239
15	0x3c1140d9	0.008865559
16	0x3bfd71d7	0.007734518
17	0xbb52d647	-0.0032171176
18	0xbad42547	-0.0016185426
19	0x3c12f76e	0.008970125
20	0xbeafcc49	-0.34335545
21	0xbc1dd1a6	-0.009632504
22	0xb976651e	-0.00023498057
23	0xbb3a66b8	-0.0028442573
24	0x3b51ee85	0.0032033038
25	0xbb719405	-0.0036861908
26	0x3a3340e1	0.0006837976
27	0x3ba62838	0.0050707124
28	0x3a06263d	0.0005117392
29	0x3b2aff6b	0.0026092182
30	0xbeae680b	-0.34063753
31	0xbbb170e9	-0.0054150713
32	0xbb91c73d	-0.0044488
33	0x3c13156f	0.008977278
34	0x3b9f5a6e	0.004863075
35	0x3b329f94	0.002725576
36	0xbc1e3147	-0.009655303
37	0xba75147b	-0.000934906
38	0x3b9a2e97	0.004705261
39	0xbbb02dc7	-0.005376551
40	0xbec630ab	-0.38709006
41	0x3c02a9b4	0.007975031
42	0xbc10567f	-0.008809685
43	0x3b73ad19	0.0037182032
44	0xbbe6a854	-0.0070391092
45	0xbc1be16b	-0.009514193
46	0x3c0ee637	0.00872188
47	0x3c1b37bb	0.009473736
48	0xbbc19a47	-0.005908284
49	0x3b9beb6b	0.0047582886
50	0xbec416f6	-0.38298768
51	0x3a80ae00	0.0009817481
52	0x3c00722b	0.00783972
53	0x3bb4a254	0.005512515
54	0x39d69800	0.0004093051
55	0xbb2add52	-0.0026071859
56	0xb9d73e66	-0.00041054486
57	0xbb0abb6b	-0.0021168839
58	0x3a957c33	0.0011404812
59	0x3ac93c29	0.0015353012
60	0xbedae0f9	-0.42749766
61	0xbbea2d17	-0.0071464884
62	0xbaef9147	-0.0018277549
63	0x3b0e124d	0.0021678389
64	0x3b6d4c8a	0.003620895
65	0x3b996d66	0.0046822308
66	0xbbb09c8a	-0.0053897547
67	0x3b86ac1c	0.0041098725
68	0x3c03b0eb	0.008037786
69	0xbb963c14	-0.0045847986
70	0x3ed15a3e	0.40889162
71	0x3ba49fbd	0.005023925
72	0x3bf525cc	0.0074813124
73	0xbc0c237c	-0.008553382
74	0xba1daea4	-0.0006015098
75	0x3b08afa9	0.0020856655
76	0x3b9a390d	0.004706508
77	0x3b8508a4	0.004059868
78	0xbbd9f53d	-0.006651549
79	0x3bd15d29	0.0063892794
80	0xbe9dca31	-0.30818322
81	0xbba238c0	-0.004950613
82	0x3b49ca2e	0.0030790675
83	0xbb36c9d2	-0.002789129
84	0x3bb9ba7d	0.005667983
85	0x3af09a85	0.0018356597
86	0x3b1c7647	0.002387421
87	0x3ba41bcd	0.005008197
88	0xbc099917	-0.008398316
89	0xbb880f8a	-0.004152243
90	0x3ea4b475	0.32168928
91	0x3a6593eb	0.0008757698
92	0x3b9f7b9c	0.0048670303
93	0x3bc1015e	0.0058900556
94	0x3ae2d1d7	0.0017304969
95	0xb986a8f6	-0.00025684357
96	0x3b417fb8	0.002952559
97	0xbb95b512	-0.0045687044
98	0x398d2ee1	0.00026928543
99	0xbafd0500	-0.0019303858
100	0x3ea5d0a6	0.3238575
101	0xbbd27614	-0.0064227674
102	0xbc0c7996	-0.00857391
103	0x3b1745e6	0.0023082434
104	0x3bc5b273	0.0060332357
105	0x3c0e0f93	0.008670705
106	0xbc16c3e0	-0.009201974
107	0x3bdede70	0.006801419
108	0x3bde5919	0.0067855236
109	0xba660ab8	-0.0008775401
110	0xbe9b4431	-0.30325463
111	0x3bcd9ae6	0.006274569
112	0x3b914a40	0.0044339
113	0xbbae360f	-0.005316503
114	0x3bf13d78	0.007362064
115	0x3b010e99	0.0019692539
116	0xbb9c0f54	-0.0047625694
117	0x3c058b27	0.008150852
118	0x3bae3859	0.0053167758
119	0x3b1378b3	0.0022502362
120	0x3eaa8a8e	0.33308834
121	0x3be9074a	0.0071114646
122	0xbb202ba4	-0.0024440074
123	0x3c06dc98	0.008231305
124	0x3a00caf6	0.0004913056
125	0xbb8bf4df	-0.0042711343
126	0xbbba7464	-0.0056901444
127	0xbad066a4	-0.001589973
128	0x3bc42038	0.005985286
129	0xbc019589	-0.007909187
130	0xbea2eca1	-0.3182116
131	0x3bf4ec8c	0.0074744876
132	0xbb840b76	-0.0040296866
133	0xbb8813f8	-0.004152771
134	0xbac4f9f5	-0.0015028106
135	0xbaf5ed5c	-0.0018762755
136	0x3b5609cc	0.0032659648
137	0x3b5d4ec7	0.0033768879
138	0x3c02eab3	0.007990527
139	0x3c052f3c	0.008128937
140	0xbea130a2	-0.31482416
141	0xbbd4034f	-0.006470121
142	0xbc0b22f0	-0.0084922165
143	0xbbafbbe9	-0.005362977
144	0x3c16dee9	0.009208419
145	0xbbc823d7	-0.006107788
146	0xbc13cb20	-0.009020597
147	0xb9dd8d1e	-0.00042257545
148	0xbc15de40	-0.009147227
149	0x39881a3d	0.0002595949
150	0xbea9dc63	-0.33175954
151	0x39ef8199	0.0004568219
152	0x3b1af885	0.0023646664
153	0xbb691dae	-0.003557067
154	0xba9bf21e	-0.0011897718
155	0x3bff316e	0.007787875
156	0xbbb07700	-0.0053852797
157	0x3c0ccd84	0.008593921
158	0x3ba7cc47	0.0051207873
159	0x3bcd366b	0.0062625906
160	0x3ea8a6a3	0.32939634
161	0x3b19dd4d	0.0023477853
162	0xbc046760	-0.008081287
163	0x3ba384ae	0.004990182
164	0x3be9d67b	0.007136164
165	0x3b142805	0.0022606861
166	0x3b417d8f	0.0029524302
167	0x3bb88e0f	0.005632169
168	0xbbe900a6	-0.007110673
169	0x3c171eed	0.009223682
170	0x3eba25c6	0.36356944
171	0x3c03ce7c	0.008044835
172	0x3c0ab882	0.008466842
173	0xba259b33	-0.0006317377
174	0xbb783900	-0.0037875772
175	0xbbc71d7b	-0.0060765124
176	0x3b4c3c24	0.0031163776
177	0x3c0f3ddb	0.008742775
178	0x3a8ed3ae	0.0010896826
179	0xbb4952a4	-0.0030719424
180	0xbeb904a4	-0.36136353
181	0x3bf78d14	0.0075546596
182	0xbb52e5cc	-0.0032180427
183	0x392dc052	0.0001657021
184	0x3b9aac3b	0.0047202385
185	0x3aca4c47	0.0015434109
186	0x3b9acc40	0.0047240555
187	0x38cd9333	9.80258e-05
188	0x3b5281a9	0.003212074
189	0x38fdc999	0.000121015306
190	0x3eac8462	0.3369475
191	0x3bab20eb	0.00522243
192	0x3c03116e	0.007999761
193	0xb9f5247b	-0.00046757222
194	0x3b947ae1	0.00453125
195	0xbb867e40	-0.0041044056
196	0xbbdf316e	-0.0068113124
197	0xbb91681f	-0.004437461
198	0x3bc9a719	0.006153953
199	0xbb7734eb	-0.003772075

fc_layer.weight f4 [1, 20]
0	0x3f051470	0.5198431
1	0x3f2429fe	0.64126575
2	0x3ef1a336	0.47194833
3	0x3f0aa241	0.5415383
4	0x3ed99205	0.42494217
5	0x3f2b856d	0.67000467
6	0x3f07fd3e	0.5312079
7	0xbec19b7b	-0.37813935
8	0x3f1b1526	0.60579145
9	0xbf18da3c	-0.59708
10	0xbf0db75d	-0.55357915
11	0x3f12ed9d	0.5739382
12	0xbed845df	-0.42240807
13	0x3f0f7415	0.560365
14	0x3ef62af8	0.48079658
15	0x3f05202e	0.5200223
16	0xbedf8f87	-0.4366419
17	0xbec70946	-0.38874263
18	0x3ee5a9f6	0.44856232
19	0xbee70f70	-0.45128965
