BahdanauGAN/epoch_100/generator.pt (torch, 4125 bytes, 11 tensors)

encoder.gru.weight_ih f4 [3, 1]
0	0x3d93d2dd	0.07217953
1	0x3f336986	0.7008289
2	0x3f385804	0.720093

encoder.gru.weight_hh f4 [3, 1]
0	0xbf76580c	-0.962281
1	0x3f7de6dd	0.99180394
2	0xbf4919de	-0.78555095

encoder.gru.bias_ih f4 [3]
0	0x3f16e73e	0.589466
1	0xbf530393	-0.8242733
2	0xbf10265f	-0.5630855

encoder.gru.bias_hh f4 [3]
0	0xbf22316c	-0.6335666
1	0x3d8a077d	0.067397095
2	0x3f3a33f0	0.727355

decoder.attn.weight f4 [10, 2]
0	0x3d3a3add	0.045466293
1	0x3efe69ea	0.4969018
2	0xbf4ee7ab	-0.8082225
3	0xbf2911e2	-0.6604291
4	0x3f1447e0	0.5792217
5	0xbe95ba3f	-0.29243657
6	0xbeab76bd	-0.33489028
7	0xbf5f744d	-0.87286836
8	0xbeb7a292	-0.3586622
9	0xbe7e3789	-0.24825872
10	0x3f1346f3	0.57530135
11	0x3eef31f1	0.4671779
12	0xbecfa837	-0.40558025
13	0x3f11bf38	0.569324
14	0xbecc0349	-0.39846256
15	0x3f5d3857	0.8641409
16	0x3f498546	0.78718984
17	0xbe77d506	-0.24202356
18	0xbf6542c2	-0.8955499
19	0xbf3662d9	-0.7124458

decoder.attn.bias f4 [10]
0	0xbf2299a1	-0.6351567
1	0xbf1b14ae	-0.6057843
2	0x3f049b9d	0.5179995
3	0xbf31f293	-0.69510764
4	0x3e904bbb	0.28182778
5	0x3ec9599f	0.39326188
6	0xbf2f317b	-0.68434876
7	0x3f140484	0.5781939
8	0xbe08f9d0	-0.13376546
9	0xbf317e27	-0.6933312

decoder.attn_combine.weight f4 [1, 10]
0	0xbde4bae4	-0.11168459
1	0xbeb8cbfc	-0.36093128
2	0x3cf0bf5c	0.029388122
3	0xbeb90401	-0.36135867
4	0xbca85c81	-0.020551922
5	0x3e7c9908	0.24667752
6	0x3e3e0dae	0.18559906
7	0xbeb4af37	-0.35289928
8	0x3ed288d7	0.41120026
9	0xbe80ef1e	-0.25182432

decoder.gru.weight_ih f4 [3, 1]
0	0xbf035498	-0.51300955
1	0xbf880f4b	-1.0629667
2	0x3f39adc0	0.72530746

decoder.gru.weight_hh f4 [3, 1]
0	0xbe92470e	-0.28569835
1	0x3ecbe172	0.3982044
2	0xbf31bdc3	-0.6943018

decoder.gru.bias_ih f4 [3]
0	0xbf8c4b0a	-1.09604
1	0x3efb34a3	0.49063596
2	0xbedcc799	-0.4312103

decoder.gru.bias_hh f4 [3]
0	0xbd98ef9a	-0.07467575
1	0x3ecd5c27	0.4010937
2	0xbf4829ad	-0.7818859
