BahdanauGAN/epoch_100/generator.pt (torch, 4125 bytes, 11 tensors)

encoder.gru.weight_ih f4 [3, 1]
000000 a1 ca 47 bf a4 d4 e3 3e 06 6f 46 3f
       -0.7804356 0.4449817 0.7751316

encoder.gru.weight_hh f4 [3, 1]
000000 d7 22 ed be 4b 9c 81 3e cc 12 7f 3e
       -0.46315643 0.25314555 0.24909514

encoder.gru.bias_ih f4 [3]
000000 d4 50 52 3f 90 27 83 bf 71 c3 57 bf
       0.82154584 -1.0246449 -0.84282595

encoder.gru.bias_hh f4 [3]
000000 72 cd 07 3f 92 79 8c 3d 6e ca c1 be
       0.5304786 0.06859125 -0.37849754

decoder.attn.weight f4 [10, 2]
000000 18 98 dd 3e 6f b4 b5 3e 74 7a 32 3e 57 fe 18 3f
       0.432801 0.35489222 0.17429525 0.5976309
000010 d6 4c 1f 3f f2 f2 2c bf 3d 81 21 3f f7 dc f2 3e
       0.6222662 -0.67558205 0.63087827 0.47434208
000020 eb 64 ab 3e 5e 0f f7 3e 0b 11 3c be 80 12 07 3f
       0.33475432 0.48253912 -0.18365876 0.52762604
000030 30 b3 a5 be ee 5a 19 bf 1e da ab be 11 8e 12 bf
       -0.32363272 -0.5990437 -0.33564848 -0.57248026
000040 e9 dc b1 be ce d6 b7 be b5 fe 5f be 32 05 34 3f
       -0.34738854 -0.3590607 -0.21874507 0.7032043

decoder.attn.bias f4 [10]
000000 f2 1c 82 3e 24 83 69 be b3 9b 92 3e 32 d9 db 3e
       0.2541271 -0.22803932 0.28634414 0.42939144
000010 79 4f bc be 3c 70 cd 3e b8 90 82 3c b5 d4 2a be
       -0.36779383 0.4012469 0.015938148 -0.16682704
000020 24 2b 07 bf af 66 0c 3f
       -0.528002 0.5484418

decoder.attn_combine.weight f4 [1, 10]
000000 82 a5 8a 3e 18 4a c0 bd 1d 09 1a be af 65 a3 3e
       0.27079397 -0.09389132 -0.15042539 0.31913516
000010 ef 9e a7 3d 89 1a 97 be b8 b3 50 be b7 03 9d be
       0.08184611 -0.29512432 -0.20381057 -0.30666897
000020 65 df a2 be 0c 51 d6 3d
       -0.31811062 0.10464677

decoder.gru.weight_ih f4 [3, 1]
000000 50 21 27 bf 7e 3b 0d bf 33 d2 e2 bd
       -0.65285206 -0.551689 -0.110752486

decoder.gru.weight_hh f4 [3, 1]
000000 94 78 ea 3e 24 de bf 3e 11 c4 a3 3e
       0.4579512 0.37474167 0.31985524

decoder.gru.bias_ih f4 [3]
000000 7b 48 0d 3f a9 0a 95 be ff e9 08 3f
       0.5518872 -0.29109696 0.5348205

decoder.gru.bias_hh f4 [3]
000000 2b 59 0d 3f 6d 62 10 bf fa d0 40 bf
       0.55214185 -0.56400186 -0.7531887
