BahdanauGAN/epoch_0/discriminator.pt (torch, 4487 bytes, 5 tensors)

unmixing_layer.weight f4 [8, 1, 1]
000000 c9 98 7c be 51 1d 08 be b4 8a d8 be 65 18 7b 3f
       -0.24667658 -0.13292433 -0.42293322 0.980841
000010 4d e5 65 3f 86 cb 93 3e e1 eb 4c bf e2 3b 10 3f
       0.8980301 0.28866214 -0.8004742 0.56341374

unmixing_layer.bias f4 [8]
000000 35 b6 69 be 85 7e 0c 3f a2 48 59 3e c5 3a 0d 3f
       -0.22823413 0.54880553 0.21219113 0.551678
000010 ce 3c 78 bf 76 b8 0c bf ca 6b 02 3f 71 36 c5 3e
       -0.9696778 -0.54968965 0.50945723 0.38518098

temp_conv.weight f4 [8, 1, 50]
000000 dc ec 03 3e 52 01 5a 3d e4 04 62 bd 86 72 a9 bd
       0.12883323 0.053223915 -0.055180445 -0.08273797
000010 56 96 01 bd ab 5e 35 3d 64 61 8d 3d 65 82 84 bd
       -0.031637512 0.044279736 0.069033414 -0.06470183
000020 15 bc 82 3b 95 a6 18 bd a2 e0 ce 3d bb 3f ef 3d
       0.0039897063 -0.03726824 0.10101439 0.116820775
000030 35 72 ad 3d 6c 63 92 3d e1 18 fe bd e9 c7 e1 bb
       0.08469049 0.071478695 -0.12407089 -0.006890286
000040 b6 4d 19 3e b2 46 ce 3d 67 98 a4 bd b7 34 0c bd
       0.1497105 0.10072078 -0.08036881 -0.03422996
000050 d7 7b 1e 3e 01 61 06 3e 8c 54 83 bc d2 66 6e 3c
       0.15476929 0.13122942 -0.016031526 0.014550881
000060 12 44 11 3e 2c 23 58 bd 96 89 53 bd 97 f7 97 bd
       0.14186123 -0.052767918 -0.051644884 -0.07420271
000070 27 63 a1 bb 5c ef 8b 3d d9 ef 65 3c f7 75 3a bd
       -0.00492515 0.068327636 0.014034235 -0.045522656
000080 3f 3b 13 3d 1b b6 e8 bd 67 27 62 3d 94 0d c8 3d
       0.035945173 -0.11362859 0.05521336 0.09768215
000090 29 77 9e bd dc f7 c5 bd 61 23 d5 bc 12 36 51 3d
       -0.07737572 -0.09666416 -0.026017847 0.051076956
0000a0 c3 53 fd 3b c1 96 71 bd 4e cc 5e 3d 83 9d a7 3d
       0.0077309324 -0.05898166 0.05439406 0.0818434
0000b0 94 d1 cc bd 89 16 d0 3d 3a 79 0c 3e 14 f1 d2 bd
       -0.10000911 0.10160548 0.1371812 -0.10299888
0000c0 80 dc 15 3e b2 86 d4 3d b8 29 1a be d8 3c 52 3d
       0.14634895 0.103772536 -0.15054977 0.051327556
0000d0 f2 8f 87 3c 69 d9 da 3d 92 9f 0f be 97 c6 0c be
       0.01654813 0.10685999 -0.14025715 -0.13747631
0000e0 10 15 af bd 8d 41 c2 bd dc 59 35 3d c6 ac 8c 3d
       -0.08548939 -0.09485159 0.04427515 0.068688914
0000f0 f4 7d d9 3d 9b f7 9d 3d 1a 95 bd bd 04 e1 66 bd
       0.10619727 0.077132426 -0.092569545 -0.056366935
000100 ac 9b f6 3d 21 e0 e7 3d e2 f3 72 bd 8a 87 10 3d
       0.12041411 0.11322046 -0.059314616 0.03528551
000110 5c d4 b8 3d 98 f1 3f bc 7a c6 80 3c cc db 18 bd
       0.09024879 -0.011715315 0.015719641 -0.03731899
000120 53 80 0b be f0 ae d5 bb 34 a9 15 be 74 99 0b bc
       -0.1362317 -0.0065210983 -0.14615327 -0.008520473
000130 07 e2 87 3d 35 fe 17 be d1 09 6e 3c 71 1e ec 3d
       0.06634908 -0.14843066 0.014528708 0.11529244
000140 a8 36 98 bd d3 52 03 bd cd 83 1b be ae fe 3c bc
       -0.074323 -0.03206141 -0.15186997 -0.01153533
000150 7a c3 f8 3d 04 9b 1b be e4 0a f6 bd f6 40 2d bd
       0.12146659 -0.15195853 -0.12013796 -0.04229828
000160 65 6d 95 3d 50 0d 4f 3d 90 d9 e4 bb 28 87 91 3d
       0.07296256 0.050549805 -0.0069839433 0.07105857
000170 e1 2c f2 bc 20 62 79 3d c1 a5 ea bd cf 82 a3 3d
       -0.029562416 0.060884595 -0.11457396 0.07983934
000180 14 7c 0d bd 54 ba 2b 3c 37 0a 6c 3d 69 b1 bc 3d
       -0.03454216 0.010481436 0.05762693 0.09213526
000190 30 7e c3 3d 2b c4 1d 3c 5d d0 fb 3d 59 ae ee bd
       0.09545553 0.00962929 0.122956015 -0.11654348
0001a0 95 f3 55 bc d1 d8 c0 3d 9d 21 ae bd a0 29 08 bc
       -0.013058563 0.094163544 -0.08502505 -0.008310705
0001b0 d1 db e4 bc 70 73 17 bd 86 98 b1 bd fc 60 08 ba
       -0.027936848 -0.036975324 -0.0867167 -0.000520244
0001c0 84 96 ea bd a4 2f dd 3d f0 96 72 3d 2a ec 05 be
       -0.1145449 0.10800102 0.059225976 -0.1307837
0001d0 23 d4 ef bd 08 2b 5e 3d 71 3e c5 bd 12 0e d9 bd
       -0.11710384 0.054240257 -0.096310504 -0.10598387
0001e0 68 96 b2 bc 61 1c 90 3d d9 0a 05 bc f1 a5 36 3d
       -0.021800235 0.07036663 -0.008120262 0.044591848
0001f0 fb 55 93 bd 09 b9 c6 bd a0 9a 53 bd 96 2b 69 bc
       -0.07194134 -0.097032614 -0.051661134 -0.014231583
000200 ba 9b 89 bd 7e ae 24 3d 5c 71 8f bd 37 1b a8 bc
       -0.067191556 0.04020547 -0.070040435 -0.02052079
000210 d3 6c 73 3c ef 8a 81 bd e3 36 fd 3c 4f 25 e1 bd
       0.014857489 -0.063253276 0.030909961 -0.10993444
000220 16 38 61 3d 56 e8 d8 ba 8c ab e5 3d 57 fc 06 be
       0.05498513 -0.0016548734 0.112143606 -0.13182198
000230 aa e0 44 3d a0 49 1a be 63 96 ad 3d 49 69 f6 bd
       0.04806582 -0.15067148 0.084759496 -0.120318
000240 7c d7 fa 3d fe 64 89 3d 18 b0 6f 3d 2f f8 53 3c
       0.12248132 0.06708716 0.058517545 0.01293759
000250 23 9d b9 3d f3 2f 23 3c 21 51 f1 bd e3 90 03 3c
       0.090631746 0.009960162 -0.11783052 0.008030149
000260 d1 d2 b9 3c 6f 92 31 bd e9 5b e1 3c f6 77 8e bd
       0.022683533 -0.04335254 0.027509646 -0.069564745
000270 06 11 99 3d 54 38 ec 3d 87 14 91 bd 75 54 f4 bd
       0.0747395 0.11534181 -0.070839934 -0.119301714
000280 b4 71 7e 3d 32 fe dd bd 57 db af 3c d0 f2 65 bd
       0.062120155 -0.108394995 0.021466894 -0.056139767
000290 a4 f4 3b 3d ea 5c be 3d 6a 41 50 bd 5e a9 bf bd
       0.045887604 0.09295066 -0.050843634 -0.09358476
0002a0 21 8d 8a 3d 02 6d 01 be 39 da d0 3d 9e 46 9c 3c
       0.067651995 -0.1263924 0.10197873 0.019076642
0002b0 5f 08 f3 bd 85 fa b2 bd 54 88 7d 3c a1 29 6e 3d
       -0.11866831 -0.08739189 0.015474398 0.05814517
0002c0 30 6b ca bd 0a bb 0b 3d ff e5 95 3d c8 78 1d 3d
       -0.09883726 0.03411392 0.07319259 0.038445264
0002d0 5f 95 e6 bd 10 8d f0 bb b0 fe c5 bd d2 3f 1b be
       -0.11258959 -0.0073410347 -0.096677184 -0.15161064
0002e0 bb 76 f2 3d cc 43 9a bc 74 a6 1b be 8a 54 71 bd
       0.11839052 -0.018831156 -0.15200216 -0.058918513
0002f0 66 37 03 be ff cb d1 bd f3 08 fd 3d e6 72 88 bc
       -0.12814102 -0.10243987 0.123552226 -0.01665635
000300 c9 33 b6 bd 77 f7 3d 3d ff ee 95 3c 18 d3 c4 3c
       -0.08896596 0.04637858 0.018302439 0.024026439
000310 cd 54 16 3d 06 1d 20 be b2 45 cd bb 85 8a 61 bd
       0.036701966 -0.15636072 -0.006264412 -0.055063743
000320 8d 52 fc 3d 06 b8 ac 3d b0 60 96 bd ce 2a c4 3d
       0.12320433 0.08433537 -0.073426604 0.09578477
000330 dc da 9c 3d ba ce f1 3d 3f ee d1 3d 87 d0 8e 3c
       0.076589316 0.11807008 0.1025052 0.017433418
000340 b3 2c 5f 3d f1 be ec bd 0c fe be 3d 50 d8 20 3d
       0.054485988 -0.11559857 0.09325799 0.03926879
000350 88 9e 0a 3e 3d d4 80 bd 92 7b 06 3e d0 d2 f2 bd
       0.13537037 -0.06290481 0.13133076 -0.118566155
000360 d7 4b 02 3e 4f 7e a2 bd 0c fe 0c 3e d7 76 9d 3c
       0.12724243 -0.07934248 0.13768786 0.019221706
000370 06 a6 d6 bd 0a 82 92 3d fd 83 70 3d a9 7f 9c bd
       -0.10480885 0.07153709 0.058719624 -0.07641537
000380 97 a5 29 3d 4c d0 a6 3b 1e 34 0a 3e 54 fc c7 bb
       0.041417684 0.005090749 0.13496444 -0.006103078
000390 42 21 c4 bd 61 16 89 3d 34 1b b3 bd 30 6d 14 3e
       -0.09576656 0.066937216 -0.08745423 0.14494777
0003a0 e7 f1 14 3e 2c 22 ad bd 22 36 02 be 15 cf 0e 3d
       0.14545403 -0.084537834 -0.12715963 0.034865458
0003b0 83 64 2c bd 26 22 c8 bd 0f c4 be 3d 11 89 df 3d
       -0.042088043 -0.09772138 0.09314739 0.10914815
0003c0 bb 3f ed bd fd 24 a9 3d 15 4e 0b 3c 0e 82 b9 3d
       -0.11584421 0.08259008 0.008502503 0.09058009
0003d0 35 33 ac 3d fb d4 28 bd 56 dc df 3c db d2 3b bc
       0.084082045 -0.04121874 0.027326744 -0.011463846
0003e0 80 65 ae bd 9b 84 03 3e 7a 91 f9 3c 25 d2 8d 3d
       -0.08515453 0.12843554 0.030464876 0.069248475
0003f0 8e d6 1f bc 45 1a 67 3c 1a fc ca bc 1e f9 1a be
       -0.009755744 0.014105384 -0.024778415 -0.15134093

temp_conv.bias f4 [8]
000000 14 ba 15 bd 33 b5 69 3d 4d 7b 8b 3d c8 01 aa 3d
       -0.03655441 0.05705757 0.06810627 0.08301121
000010 0f ab d7 bd 6d 17 e1 bd 44 34 e7 3c 93 e3 c0 bd
       -0.10530674 -0.10990796 0.028223164 -0.09418406

fc_layer.weight f4 [1, 160]
000000 74 28 82 3d df b6 a5 bd e9 ed 93 bd ed d9 97 bb
       0.06355372 -0.080915205 -0.07223112 -0.004634133
000010 5c 57 0e bc 75 c6 da 3c 2a 58 9c bd 7c 11 74 3d
       -0.00868782 0.02670596 -0.076340035 0.059586987
000020 32 43 db bb 01 73 95 3b b4 0d 92 bd b0 23 19 bc
       -0.00669136 0.0045608287 -0.0713152 -0.0093468875
000030 3a 9d 48 bd f4 c4 aa bd 58 da 92 bd a1 b7 86 3c
       -0.048978068 -0.08338347 -0.07170552 0.016444983
000040 e9 ed 3f bd 31 83 48 bd 6d 57 66 bd 70 fe 5b 3d
       -0.04685775 -0.04895324 -0.05623572 0.053709447
000050 82 26 49 bd d6 87 81 3d 7a 1a 3f 3d 0f 75 66 3d
       -0.04910899 0.06324737 0.04665611 0.05626398
000060 69 79 e4 3c a0 a8 5f bd e3 4b 0b 3c fc b8 aa 3d
       0.027889924 -0.054604173 0.0085019795 0.08336064
000070 29 25 5e bd 9e ac 6b 3c 05 9a 1c bd 18 06 6f 3c
       -0.054234657 0.014384417 -0.038232822 0.014588855
000080 55 5e 2c 3c dd f5 15 3d a6 1c 99 3c c8 f6 9a 3d
       0.010520537 0.036611427 0.018690418 0.07566601
000090 fe a1 13 bd 24 d6 2a bd 2c 4e 18 bd 5a e6 46 3b
       -0.03604316 -0.041708127 -0.037183926 0.0030349703
0000a0 c6 a8 32 bd b8 85 a7 bc 54 01 2c bd cb 4b 49 3d
       -0.043617986 -0.020449504 -0.041993454 0.049144547
0000b0 e1 c3 82 bd 10 fa ad 3a f1 07 2b bc ef 22 6c 3d
       -0.06385017 0.0013273377 -0.010438905 0.057650503
0000c0 e9 d4 5e 3d 53 69 1b 3d 41 82 08 3d 2d e4 26 bc
       0.054402266 0.037942242 0.033327345 -0.010186237
0000d0 a0 89 ce b8 e3 2a 22 3d 3b a7 0a bc 95 95 67 bd
       -9.84848e-05 0.03959168 -0.008462722 -0.056539137
0000e0 12 e8 17 bd 6e 79 23 3d e8 08 e1 3c 0c 74 76 39
       -0.037086554 0.039910726 0.027470067 0.00023503619
0000f0 3c 92 23 bc c8 d9 89 bb 54 90 0a 3d 2e 1b 11 bd
       -0.009983595 -0.0042068698 0.03382905 -0.03542631
000100 cb 50 63 bd 49 c4 58 3c bd 3c b0 bd 66 7c 7f 3d
       -0.055496972 0.013230392 -0.08605335 0.062374495
000110 2a 25 80 bd 38 3f b8 bd f2 1c 42 bc 17 9d 1c 3d
       -0.062570885 -0.08996433 -0.011847721 0.03823575
000120 5a 80 ad bd d4 52 be 3c 2f f3 67 bd 50 6e c1 bd
       -0.08471747 0.023232855 -0.056628402 -0.094448686
000130 eb 1c 8b bd 10 4e 73 3c 26 96 3f bb d7 f8 ed bb
       -0.06792625 0.0148501545 -0.0029233783 -0.00726233
000140 a5 9f 4d 3d f6 31 ec bc 4a 01 a7 bc de e2 92 bd
       0.050201077 -0.028832417 -0.020386357 -0.07172178
000150 45 0a 94 bd 27 f6 60 bd 93 e0 68 bd 4e a1 8d bd
       -0.07228521 -0.05492225 -0.056854796 -0.06915532
000160 08 9b a7 bc 9d e9 83 3b 56 5e 9a 3c ce da 4b bd
       -0.020459667 0.0040256516 0.018843811 -0.049769215
000170 30 f6 73 bd f4 e2 9b 3c 75 8c 8e bd b5 e4 02 3d
       -0.059560955 0.019029118 -0.06960384 0.031956393
000180 e5 09 6a bd 52 b8 32 3c 76 d2 a0 bb 3c 23 8a bd
       -0.057138342 0.010908203 -0.0049079014 -0.06745002
000190 b6 a4 ad bd 1e 57 9a 3c 7c 5e 1d 3c 3d 25 7a bc
       -0.08478682 0.018840369 0.009605046 -0.015267667
0001a0 bc 67 60 3d 95 5f 7d 3d e0 f7 5e 3d e1 ca a2 3b
       0.05478643 0.061858732 0.05443561 0.0049680327
0001b0 58 c7 52 bd 44 b5 d5 3c fa 98 bf bd 7e 1b 4b bd
       -0.05145964 0.02608741 -0.0935535 -0.049586765
0001c0 ba 79 00 bc 4c b8 31 3d 17 37 1e 3d da 30 93 bc
       -0.007841522 0.04338865 0.038626757 -0.01796763
0001d0 8c f8 9a bd 2c 9c b3 bd 39 4e ee bb ed f0 8b bd
       -0.07566938 -0.08770022 -0.0072725085 -0.06833062
0001e0 63 f1 09 3d b0 3e a6 3c 31 7e 5a 3b 73 5f 52 bc
       0.03367747 0.020293564 0.0033339376 -0.01284014
0001f0 21 d2 8a bd 1a be 11 3c 10 4a c8 bc 1b e0 55 3c
       -0.0677836 0.008895421 -0.024449378 0.013053919
000200 4e 50 6c 3c 77 db 87 bd b2 48 a9 3d 09 c6 65 bc
       0.014423443 -0.066336565 0.08265819 -0.014024266
000210 c3 44 9d 3c 33 b5 f0 bc a0 a1 4b 3d 57 7e de 3c
       0.019197827 -0.029383278 0.049714684 0.027159853
000220 62 17 26 bd 17 28 00 3d 1c b8 98 3d 1f 43 ef 3b
       -0.040549643 0.031288233 0.07456991 0.0073017026
000230 79 2d 0a bd 0b b4 13 bd 26 48 38 bd 63 68 de 3c
       -0.033734772 -0.036060374 -0.04499068 0.027149385
000240 ab cf 60 bb 34 a0 3c bd 67 93 49 3d e1 80 37 bd
       -0.0034303467 -0.04605122 0.04921284 -0.044800643
000250 86 96 9e 3d f2 33 1f 3c 4f 3b 68 3d d8 67 63 bd
       0.07743554 0.009716975 0.056697186 -0.055518955
000260 d3 c2 31 3d 2e b6 f1 bc 92 41 85 3d f5 c1 73 3c
       0.04339869 -0.029505815 0.06506647 0.014877786
000270 c6 cd ff 3c 56 6a 03 3d 9d f2 0a bc 54 c8 76 bd
       0.03122605 0.03208383 -0.008480695 -0.06024964
