BahdanauGAN/epoch_0/generator.pt (torch, 11803 bytes, 11 tensors)

encoder.gru.weight_ih f4 [60, 1]
-0.08134864 0.12754846 -0.11872539 0.013209668 -0.16572829 -0.24555966 -0.052381966 0.05547253
-0.011882362 0.028852958 0.164302 0.1822075 0.13095304 0.040362276 0.19402985 -0.016171927
-0.06060317 -0.06452713 -0.04012879 0.05461119 -0.051131874 -0.010076287 0.03556475 0.14255057
0.1174167 0.09965243 -0.14510466 0.1839228 -0.19164893 0.107422054 0.24138154 0.08881826
-0.16785988 -0.16831842 0.0032047948 -0.043416955 0.100451306 -0.07986752 0.022871055 0.06038631
-0.1382804 -0.16533633 0.24698907 0.12951334 -0.16092978 -0.12499929 0.021873241 0.2225455
0.16273583 -0.09097915 0.24269003 -0.024259446 0.017653123 0.08973942 -0.050467227 -0.123198934
0.06621533 -0.011320292 0.03156905 0.029043648
00000000: 1e9a a6bd 109c 023e 4c26 f3bd 5d6d 583c
00000010: adb4 29be fe73 7bbe 798e 56bd 2a37 633d
00000020: 3dae 42bc 0a5d ec3c c93e 283e 9a94 3a3e
00000030: 8e18 063e ea52 253d c3af 463e fd7a 84bc
00000040: 083b 78bd cd26 84bd 165e 24bd fcaf 5f3d
00000050: a86f 51bd 0317 25bc 58ac 113d c7f8 113e
00000060: 2b78 f03d 9316 cc3d 5196 14be 4256 3c3e
00000070: 9e3f 44be 1800 dc3d b92c 773e 59e6 b53d
00000080: 76e3 2bbe aa5b 2cbe 8907 523b fad5 31bd
00000090: 6ab9 cd3d 9591 a3bd 145c bb3c a357 773d
000000a0: 6199 0dbe ed4d 29be b4ea 7c3e 259f 043e
000000b0: c7ca 24be a1ff ffbd 832f b33c f8e2 633e
000000c0: 39a4 263e 4753 babd bc83 783e bfbb c6bc
000000d0: 489d 903c 4dc9 b73d b9b6 4ebd b94f fcbd
000000e0: e79b 873d bf78 39bc 8c4e 013d f2ec ed3c

encoder.gru.weight_hh f4 [60, 20]
-0.2333698 0.07580084 0.14763913 -0.18426634 -0.1773965 -0.13180616 0.01906374 0.08279468
0.07051889 0.2120196 -0.16314021 -0.12921628 -0.16025785 -0.005844149 -0.15348054 0.017712642
0.11402788 0.03745224 -0.14856252 -0.19040714 -0.1894264 0.10673831 0.21462634 -0.030159831
-0.07172632 0.065599814 -0.10748953 0.1185933 -0.14271633 0.053905446 0.0794264 0.22062859
-0.004932351 -0.0708816 -0.18394214 0.07938298 -0.11830158 0.15300989 -0.08734931 0.046387926
0.08099257 -0.028769746 -0.18609966 0.03158226 -0.17995486 0.14768165 0.1731935 -0.20471908
-0.0926309 -0.13110548 -0.10092833 -0.13648714 0.064874575 -0.081646696 0.013136473 0.083487436
-0.1921394 -0.14859658 -0.0132724345 0.15390399 -0.24794738 -0.06718783 0.17728887 -0.01847018
0.017408969 0.23587137 0.14590137 -0.045993023 0.041553713 0.17626542 -0.124311484 -0.1296665
0.0072578387 0.06598656 -0.20228665 0.100937076 0.090546966 0.045212205 0.10099768 -0.11085136
-0.03298501 -0.07245912 0.019993946 0.15200686 0.047675267 0.04996781 -0.14606844 -0.043470386
0.039145555 0.07713306 -0.012464555 0.0590537 0.081261754 -0.09159801 0.029233513 0.092280656
0.17660196 0.14192654 0.1380965 -0.037737336 0.025907643 -0.044260394 0.045423187 0.058629904
-0.14729081 -0.08998661 0.04232252 -0.15967408 0.035780713 0.029385218 -0.24860501 0.08761714
-0.19492508 0.18552051 0.103134684 -0.12948501 0.16692254 -0.0013242514 -0.03808728 -0.19671631
0.19784954 0.00894409 0.13928255 0.10624138 0.06275768 -0.0618732 0.17143527 0.15050133
0.18770972 0.15508676 0.16685484 -0.11258796 -0.061368708 0.13645034 -0.23922616 -0.2382308
-0.16813445 -0.24135317 0.13162579 -0.015450092 -0.090351224 0.00539647 0.17150484 0.15611142
0.109105915 0.09376621 0.0235062 0.09008167 -0.05330978 0.14320982 0.07741424 -0.22748707
0.05966071 -0.09753867 -0.0425101 -0.18079668 -0.19479407 0.1885583 -0.020498645 0.08124349
-0.036315918 -0.011534429 -0.010185635 -0.09536365 0.17156337 -0.0640445 0.045679323 0.05808465
-0.10467537 0.050291594 -0.0015493112 -0.18624227 -0.17171794 0.23512027 0.16579933 -0.098286375
0.0015437874 -0.1435169 0.12773065 -0.07865544 0.039797883 -0.0630163 -0.22769363 -0.14016907
-0.05064342 0.13868365 0.18345794 0.20158787 -0.06606494 -0.20585313 0.16069478 -0.19161977
0.03201678 -0.16903077 -0.104318336 -0.060262855 -0.053003855 0.21972421 -0.111776486 0.06421672
0.018108226 0.10839488 0.23485197 -0.13355562 0.10283047 0.0655019 0.21184784 0.0676826
0.1103711 -0.098239124 -0.14165638 0.15731372 -0.08800734 0.07872926 -0.099019885 -0.016269276
-0.24365701 -0.13609213 -0.05770023 -0.14109297 -0.09515492 0.17793436 -0.23254873 0.047435373
0.04543186 -0.1259887 0.0985029 -0.23886897 0.13795824 0.0011778327 -0.01374489 -0.24130271
0.14943494 0.042044833 0.1680364 -0.06777739 -0.12022025 -0.16559213 -0.18232477 0.0077239056
-0.063066214 -0.17326082 0.0077261264 0.046867043 -0.13123122 -0.17723644 0.088302106 -0.17469126
-0.10750175 0.1877412 0.23871185 0.18202923 0.07073801 0.20047987 -0.0032946235 0.024805848
00000000: 7ef8 6ebe 793d 9b3d b62e 173e 51b0 3cbe
00000010: 6ea7 35be 32f8 06be 8f2b 9c3c 4290 a93d
00000020: 356c 903d ab1b 593e 3a0e 27be 4651 04be
00000030: a21a 24be 4680 bfbb 012a 1dbe 1a1a 913c
00000040: 7387 e93d 8567 193d c620 18be 17fa 42be
00000050: fff8 41be 9d99 da3d 02c7 5b3e c011 f7bc
00000060: 40e5 92bd 3259 863d 7923 dcbd 0be1 f23d
00000070: 3b24 12be f5cb 5c3d 4faa a23d 76ec 613e
00000080: 8f9f a1bb 5f2a 91bd 545b 3cbe 8b93 a23d
00000090: 1948 f2bd a0ae 1c3e 32e4 b2bd 4401 3e3d
000000a0: 6fdf a53d 88ae ebbc e990 3ebe 665c 013d
000000b0: 1646 38be dc39 173e a359 313e e1a1 51be
000000c0: 45b5 bdbd 8440 06be 83b3 cebd 49c3 0bbe
000000d0: f6dc 843d 6236 a7bd 5c3a 573c 76fb aa3d
000000e0: 31c0 44be b429 18be a074 59bc 0299 1d3e
000000f0: ebe5 7dbe c699 89bd 378b 353e c64e 97bc
00000100: 419d 8e3c 4488 713e 2b67 153e 2e63 3cbd
00000110: 3a34 2a3d ec7e 343e 0597 febd 4cc7 04be
00000120: 2ad3 ed3b f623 873d 3b24 4fbe 19b8 ce3d
00000130: b070 b93d 6f30 393d dfd7 ce3d 0a06 e3bd
00000140: 4a1b 07bd 7265 94bd 58ca a33c b0a7 1b3e
00000150: 2447 433d 0cab 4c3d f792 15be 010e 32bd
00000160: 1757 203d f0f7 9d3d 2238 4cbc 4be2 713d
00000170: 906c a63d bd97 bbbd 1f7b ef3c a4fd bc3d
00000180: 25d7 343e 3155 113e 2b69 0d3e 7792 1abd
00000190: 443c d43c 634a 35bd aa0d 3a3d e925 703d
000001a0: 67d3 16be e64a b8bd 615a 2d3d 9a81 23be
000001b0: cc8e 123d 45b9 f03c 5092 7ebe 9d70 b33d
000001c0: 719a 47be 17f9 3d3e 4738 d33d b897 04be
000001d0: beed 2a3e 8192 adba 6801 1cbd 0070 49be
000001e0: 1299 4a3e 3c8a 123c 16a0 0e3e 1595 d93d
000001f0: 1987 803d c16e 7dbd ba8c 2f3e 051d 1a3e
00000200: fa36 403e 10cf 1e3e ffdb 2a3e 8494 e6bd
00000210: c15d 7bbd a3b9 0b3e b4f7 74be c6f2 73be
00000220: 702b 2cbe 4925 77be e9c8 063e 6222 7dbc
00000230: 100a b9bd dfd4 b03b f79e 2f3e acdb 1f3e
00000240: ec72 df3d 8008 c03d 1390 c03c bd7c b83d
00000250: 5b5b 5abd 98a5 123e 5b8b 9e3d 5ff2 68be
00000260: ca5e 743d 5bc2 c7bd 121f 2ebd c422 39be
00000270: 1978 47be 6d15 413e c6ec a7bc fd62 a63d
00000280: 00c0 14bd e7fa 3cbc a6e1 26bc 044e c3bd
00000290: 4fae 2f3e c329 83bd 3e1a 3b3d 2cea 6d3d
000002a0: 0a60 d6bd 8ffe 4d3d 4212 cbba 4bb6 3ebe
000002b0: d4d6 2fbe 5ec3 703e 4dc7 293e 5e4a c9bd
000002c0: e958 ca3a 18f6 12be d3cb 023e 1a16 a1bd
000002d0: 1b03 233d b10e 81bd 8528 69be 7b88 0fbe
000002e0: 7a6f 4fbd 1603 0e3e 66dc 3b3e 0d6d 4e3e
000002f0: 0e4d 87bd 2acb 52be 2c8d 243e f937 44be
00000300: 0724 033d 6716 2dbe daa4 d5bd 2fd6 76bd
00000310: 921a 59bd 62ff 603e 12eb e4bd 0e84 833d
00000320: b457 943c 23fe dd3d 097d 703e cec2 08be
00000330: c898 d23d dc25 863d a4ee 583e 2d9d 8a3d
00000340: 3e0a e23d 9831 c9bd 5f0e 11be d916 213e
00000350: 313d b4bd ce3c a13d f0ca cabd 2547 85bc
00000360: 3981 79be bc5b 0bbe 1457 6cbd ad7a 10be
00000370: 95e0 c2bd 6d34 363e 4121 6ebe 984b 423d
00000380: c216 3a3d 2f03 01be e3bb c93d 119a 74be
00000390: ed44 0d3e 8261 9a3a 3f32 61bc 0f18 77be
000003a0: 7905 193e 3437 2c3d bc11 2c3e dfce 8abd
000003b0: 0936 f6bd fc90 29be 58b3 3abe d118 fd3b
000003c0: dc28 81bd 496b 31be 722b fd3b a8f7 3f3d
000003d0: 7a61 06be 787d 35be bcd7 b43d 44e2 32be
000003e0: e129 dcbd 3b3f 403e e170 743e df65 3a3e
000003f0: 17df 903d 984a 4d3e 9cea 57bb a235 cb3c

encoder.gru.bias_ih f4 [60]
0.12975597 0.009346279 -0.20883666 0.093233414 0.046227008 -0.067153916 0.00504501 -0.22527969
0.13998763 0.15715215 0.20515706 -0.046835586 -0.09704911 0.096880645 -0.16130555 0.06813927
0.072682366 -0.05588024 0.08511802 -0.14096819 -0.03428152 0.15211357 0.1084027 0.025367202
0.0047129267 0.020226186 0.18217285 -0.079323776 0.18164672 -0.16138953 -0.02451509 -0.1339501
-0.13242854 0.12912297 -0.14433715 0.03515475 0.038329657 -0.047539186 -0.1456143 0.013533476
0.071872704 -0.0046001477 0.11739104 -0.018783934 0.1637441 0.17543006 0.15188347 0.036503516
0.18345062 0.15536273 0.104652144 -0.045642156 0.04657988 0.18884154 -0.164189 -0.12188063
-0.17583989 -0.04924356 -0.16399257 -0.08833148
00000000: c0de 043e 2321 193c 47d9 55be 29f1 be3d
00000010: 8858 3d3d fe87 89bd 9c50 a53b b8af 66be
00000020: eb58 0f3e 7eec 203e b114 523e acd6 3fbd
00000030: afc1 c6bd 5c69 c63d 482d 25be 9a8c 8b3d
00000040: 7eda 943d aee2 64bd 5b52 ae3d f759 10be
00000050: c76a 0cbd a9c3 1b3e 3c02 de3d e1ce cf3c
00000060: e56e 9a3b 63b1 a53c 858b 3a3e 8174 a2bd
00000070: 9901 3a3e 4c43 25be dfd3 c8bc 372a 09be
00000080: 599b 07be d038 043e 1ecd 13be 6dfe 0f3d
00000090: 8fff 1c3d 73b8 42bd ea1b 15be 83bb 5d3c
000000a0: ff31 933d d6bc 96bb b76a f03d c4e0 99bc
000000b0: 89ac 273e f0a3 333e 5787 1b3e b684 153d
000000c0: 7bda 3b3e 6817 1f3e dd53 d63d 45f3 3abd
000000d0: 8bca 3e3d ad5f 413e 2921 28be 8d9c f9bd
000000e0: 5f0f 34be 9db3 49bd abed 27be 23e7 b4bd

encoder.gru.bias_hh f4 [60]
-0.08419641 0.09658895 -0.13294765 0.04584843 -0.23001052 0.16086616 -0.085431404 -0.01672455
0.1796724 -0.21499135 -0.16438407 -0.16706967 0.082187034 0.089874595 0.0065671755 -0.19016187
-0.022739151 0.12519206 -0.1407697 -0.12306156 -0.055873495 -0.18824802 0.19557613 0.22321773
0.11243727 -0.03217442 -0.19183932 0.06256779 -0.19055957 -0.13429548 -0.08291458 0.15024728
0.07816132 -0.20551299 0.16566028 -0.099224724 -0.1457751 0.091851756 0.17790766 -0.08249636
-0.16768382 -0.098804355 0.038302917 -0.10895833 0.18050437 -0.22548501 -0.22270375 0.036178567
-0.15565675 0.12689267 -0.11934529 0.12944938 0.13812226 -0.23401888 0.039521262 -0.17695095
-0.17571004 -0.12921768 -0.057526372 0.06998231
00000000: 2b6f acbd 6dd0 c53d 6e23 08be 90cb 3b3d
00000010: e187 6bbe 19ba 243e a9f6 aebd ec01 89bc
00000020: 0bfc 373e b126 5cbe 4c54 28be 5014 2bbe
00000030: ad51 a83d 2c10 b83d 7631 d73b cbb9 42be
00000040: 7547 babc 5932 003e ef25 10be b307 fcbd
00000050: 9bdb 64bd 17c4 40be 1c45 483e 3093 643e
00000060: 8345 e63d 53c9 03bd 8771 44be 8b23 803d
00000070: 0c22 43be c184 09be 1fcf a9bd 6cda 193e
00000080: 0b13 a03d ff71 52be d9a2 293e 5536 cbbd
00000090: 1146 15be c61c bc3d 6d2d 363e daf3 a8bd
000000a0: 4fb5 2bbe f059 cabd 85e3 1c3d 8b25 dfbd
000000b0: 23d6 383e 8be5 66be 740c 64be fa2f 143d
000000c0: 7c64 1fbe 27f0 013e 4e6b f4bd 618e 043e
000000d0: ec6f 0d3e a5a2 6fbe 0ce1 213d a132 35be
000000e0: 55ed 33be a451 04be c6a0 6bbd e352 8f3d

decoder.attn.weight f4 [20, 21]
0.020927705 0.042458925 -0.1719022 -0.034351617 0.21250722 -0.12591615 -0.020135367 -0.22578755
-0.07675525 0.19726558 -0.13574491 0.21356145 0.13925584 0.13828951 0.201887 -0.061604183
-0.18230249 0.015541308 -0.24080428 0.053602464 -0.0044407295 0.04166315 -0.21423103 0.097770184
-0.035741914 0.02302895 0.008084387 0.21864843 0.020906547 0.097945645 0.12166259 0.10124297
-0.064346045 0.19632281 0.0443628 0.0380878 -0.18837352 -0.060050443 0.0646873 0.082548864
-0.062217746 0.07485015 -0.039993543 0.13400474 0.07632207 0.15210342 0.083803385 -0.15121584
0.024826048 0.18118586 0.09745578 0.035615183 -0.19258626 0.14183661 -0.09410945 0.067879654
-0.08865058 0.21557967 0.03594973 0.09040169 0.038883887 -0.2394187 0.18462786 -0.06554834
0.028972842 -0.057969615 0.011080434 -0.13038434 -0.12671657 0.009825721 0.11892129 0.11226882
-0.13009459 -0.1423637 -0.10967468 -0.030848613 -0.08248542 -0.096559644 -0.12606128 0.08888747
0.15228714 -0.14242437 -0.23005718 -0.02678925 -0.09490329 0.14880663 0.021235295 0.005090077
-0.102027334 -0.06758651 0.15306279 0.15241939 0.012876414 0.17390335 -0.17930041 0.1263776
-0.018020254 0.10517996 -0.05458862 -0.08515118 0.15730555 -0.03867224 0.08603581 -0.16716431
0.021190442 -0.19047664 0.058644272 0.09460462 -0.23664351 -0.13107762 0.0134475455 0.1207147
0.0024057855 0.011277606 0.13918574 -0.020299546 0.13181609 0.105448626 -0.1323776 0.113507204
-0.090674944 0.16939862 -0.15279509 0.14016028 -0.16011927 -0.035374127 -0.012924618 0.18728182
-0.086963415 -0.014471555 -0.23317963 0.0048439256 -0.06191066 -0.0012742467 0.20693167 0.08914505
-0.17921376 -0.2099161 -0.02656706 0.22605592 0.073904335 -0.060529903 0.025821872 0.0654861
-0.01211805 -0.16342692 0.18174128 -0.1524444 -0.1504476 0.01563812 0.07551833 -0.14751153
0.17109857 -0.10422995 -0.03432392 0.15514502 0.16999911 0.04498824 0.16388053 -0.10834567
0.0383109 -0.22206356 0.19140013 0.09708844 0.092838414 0.04734187 -0.13387969 -0.064676315
-0.14628045 0.03975322 -0.18809098 0.055508573 0.055828758 0.1856967 0.1714205 -0.11063735
-0.059035007 0.16586536 -0.13044919 0.21832824 0.0028904418 -0.014343942 0.091214515 -0.14400637
-0.064163916 -0.12584072 -0.13244854 -0.053809132 -0.069610834 0.08331003 -0.04627031 -0.13029003
-0.1907803 -0.032836843 0.19572625 -0.22499941 0.026187694 -0.18189865 0.1883193 -0.13538006
0.20073368 0.18991457 -0.091423385 -0.18951376 -0.16981529 0.10287915 -0.18257676 -0.17784885
0.15860866 -0.06863934 -0.04973765 0.17627275 -0.031746488 0.10795255 0.0534997 0.19212765
0.059625097 0.14593662 -0.07393016 -0.008400788 0.1641809 0.111966565 -0.13885106 -0.110987894
0.08601952 0.23215093 -0.00501589 0.108108275 -0.01440209 0.07281143 0.17773798 0.05321469
0.01578161 0.1672176 -0.19550431 -0.09009745 0.14639618 0.065311156 -0.11930532 -0.11293837
0.05475616 0.08811801 0.22303346 0.09291197 0.08695281 0.21090052 0.17097738 0.037928194
0.018644879 0.036112078 0.13938715 -0.06755902 -0.14314464 0.14513426 0.20210639 0.09006854
00000000: 9470 ab3c 69e9 2d3d 2107 30be 48b4 0cbd
00000010: 7e9b 593e 2af0 00be edf2 a4bc da34 67be
00000020: db31 9dbd fdff 493e b700 0bbe daaf 5a3e
00000030: 1599 0e3e c49b 0d3e 77bb 4e3e ab54 7cbd
00000040: 81ad 3abe f8a0 7e3c 6695 76be 428e 5b3d
00000050: 8a83 91bb fba6 2a3d 615f 5bbe bc3b c83d
00000060: 1d66 12bd 35a7 bc3c 6074 043c 60e5 5f3e
00000070: 3544 ab3c ba97 c83d 3c2a f93d 7958 cf3d
00000080: dcc7 83bd d908 493e c4b5 353d f401 1c3d
00000090: fde4 40be 74f7 75bd c67a 843d 610f a93d
000000a0: 09d8 7ebd 094b 993d 45d0 23bd 8a38 093e
000000b0: bf4e 9c3d 00c1 1b3e 1ca1 ab3d 53d8 1abe
000000c0: ff5f cb3c c988 393e e596 c73d 3ae1 113d
000000d0: 5535 45be 9e3d 113e 75bc c0bd 7d04 8b3d
000000e0: 6f8e b5bd ebc0 5c3e 0640 133d 8524 b93d
000000f0: b644 1f3d 2d2a 75be 160f 3d3e 353e 86bd
00000100: 7458 ed3c 8c71 6dbd b58a 353c 7983 05be
00000110: fdc1 01be 10fc 203c 018d f33d 32ed e53d
00000120: 8437 05be cac7 11be 1e9d e0bd 3bb6 fcbc
00000130: 1eee a8bd 10c1 c5bd 3516 01be a20a b63d
00000140: 29f1 1b3e b2d7 11be 1c94 6bbe 2175 dbbc
00000150: a85c c2bd c460 183e a4f5 ad3c a9ca a63b
00000160: b5f3 d0bd cc6a 8abd 7ebc 1c3e d413 1c3e
00000170: 98f7 523c b813 323e 879a 37be 2169 013e
00000180: 369f 93bc 9768 d73d 5198 5fbd be63 aebd
00000190: b514 213e c866 1ebd 8b33 b03d 1f2d 2bbe
000001a0: 9497 ad3c 4f0c 43be fa34 703d 11c0 c13d
000001b0: ad52 72be 3639 06be 1853 5c3c 4539 f73d
000001c0: 62aa 1d3b b5c5 383c b586 0e3e 3c4b a6bc
000001d0: ccfa 063e 73f5 d73d fe8d 07be 7776 e83d
000001e0: c9b3 b9bd d576 2d3e 5176 1cbe 2d86 0f3e
000001f0: 4ef6 23be 76e4 10bd c7c1 53bc cec6 3f3e
00000200: e019 b2bd 1a1a 6dbc a4c6 6ebe cbb9 9e3b
00000210: 0896 7dbd a004 a7ba e5e5 533e ae91 b63d
00000220: d083 37be 3ff4 56be 2aa3 d9bc 347b 673e
00000230: 285b 973d 34ee 77bd 6488 d33c 941d 863d
00000240: c98a 46bc 6359 27be 631a 3a3e 631a 1cbe
00000250: f00e 1abe 841b 803c 5ba9 9a3d 430d 17be
00000260: 7734 2f3e 8376 d5bd 3d97 0cbd 56de 1e3e
00000270: 3f14 2e3e 9745 383d 4cd0 273e 56e4 ddbd
00000280: e4eb 1c3d a164 63be 65fe 433e 4ed6 c63d
00000290: 1122 be3d 8ce9 413d c217 09be 0475 84bd
000002a0: 8bca 15be 46d4 223d ec9a 40be f55c 633d
000002b0: b2ac 643d 4727 3e3e db88 2f3e d695 e2bd
000002c0: b1ce 71bd 9cd8 293e 7994 05be 7091 5f3e
000002d0: 916d 3d3b da02 6bbc adce ba3d 6876 13be
000002e0: 5f68 83bd 64dc 00be 97a0 07be f766 5cbd
000002f0: 2090 8ebd 739e aa3d f085 3dbd c06a 05be
00000300: e95b 43be ed7f 06bd 766c 483e 3f66 66be
00000310: 9387 d63c a443 3abe c6d6 403e 12a1 0abe
00000320: 218d 4d3e f778 423e 2f3c bbbd e50f 42be
00000330: 0fe4 2dbe 4eb2 d23d 67f5 3abe 021e 36be
00000340: 4f6a 223e c892 8cbd b5b9 4bbd d880 343e
00000350: 9b08 02bd 3a16 dd3d 8022 5b3d 1cbd 443e
00000360: 7239 743d 6970 153e b268 97bd 75a3 09bc
00000370: 0a1f 283e ba4e e53d f92e 0ebe 9f4d e3bd
00000380: 012b b03d f9b8 6d3e 565c a4bb df67 dd3d
00000390: bef6 6bbc 291e 953d f200 363e a6f7 593d
000003a0: 6f48 813c 173b 2b3e 4832 48be 0385 b8bd
000003b0: e1e8 153e dbc1 853d 5956 f4bd 3b4c e7bd
000003c0: ff47 603d 3777 b43d e262 643e a248 be3d
000003d0: 5114 b23d 4ef6 573e b214 2f3e 985a 1b3d
000003e0: 25bd 983c 42ea 133d 81bb 0e3e 625c 8abd
000003f0: 8294 12be 139e 143e faf4 4e3e db75 b83d

decoder.attn.bias f4 [20]
-0.17633268 0.05405569 -0.10630466 0.15220211 -0.1162638 0.21752927 0.23662214 0.032221876
0.14172606 0.04709968 -0.10251706 -0.18507393 0.13160415 -0.21916926 -0.1375344 0.10588145
0.014757274 -0.07115992 0.22143765 -0.058210988
00000000: 8e90 34be 8069 5d3d 42b6 d9bd dfda 1b3e
00000010: b71b eebd febf 5e3e 134d 723e 16fb 033d
00000020: a320 113e 98eb 403d 77f4 d1bd 0584 3dbe
00000030: 3dc3 063e e86d 60be d1d5 0cbe 60d8 d83d
00000040: 7ec8 713c 4bbc 91bd 8dc0 623e a56e 6ebd

decoder.attn_combine.weight f4 [1, 20]
0.20929559 -0.11217327 0.19551261 0.0322392 -0.049497936 0.049969677 -0.14422195 -0.2125781
0.05117393 0.12290783 0.15701947 0.19737288 -0.021956714 0.17294765 -0.036557477 0.13709585
0.04033991 0.17793697 -0.1673299 -0.05123421
00000000: 9551 563e 19bb e5bd 7534 483e 400d 043d
00000010: 59be 4abd 01ad 4c3d ebae 13be 13ae 59be
00000020: c19b 513d 1ab7 fb3d b6c9 203e 1e1c 4a3e
00000030: 91de b3bc 3019 313e 4bbd 15bd db62 0c3e
00000040: 763b 253d 1c35 363e 8858 2bbe f7da 51bd

decoder.gru.weight_ih f4 [3, 1]
0.124610156 0.93828124 -0.04642435
00000000: 9c33 ff3d 3333 703f 7627 3ebd

decoder.gru.weight_hh f4 [3, 1]
-0.31913063 -0.33467796 -0.2749635
00000000: 1765 a3be e95a abbe 04c8 8cbe

decoder.gru.bias_ih f4 [3]
-0.06030065 0.9415848 0.501758
00000000: d0fd 76bd b40b 713f 3673 003f

decoder.gru.bias_hh f4 [3]
-0.6958111 -0.49955297 -0.96269554
00000000: ad20 32bf 68c5 ffbe 3773 76bf
