BahdanauGAN/epoch_0/generator.pt (torch, 4125 bytes, 11 tensors)

encoder.gru.weight_ih f4 [3, 1]
-0.11312401 0.8183023 0.53959334
00000000: 90ad e7bd 427c 513f ca22 0a3f

encoder.gru.weight_hh f4 [3, 1]
-0.8853497 0.8671727 -0.7118668
00000000: 47a6 62bf 08ff 5d3f e73c 36bf

encoder.gru.bias_ih f4 [3]
0.49847704 -0.6780136 -0.6540742
00000000: 6238 ff3e 4d92 2dbf 6871 27bf

encoder.gru.bias_hh f4 [3]
-0.72455555 0.21365614 0.6339129
00000000: 797c 39bf adc8 5a3e 1e48 223f

decoder.attn.weight f4 [10, 2]
0.11632743 0.42712563 -0.64880913 -0.26957956 0.60862607 -0.29267398 -0.05407899 -0.44455662
-0.40456864 -0.21906637 0.36277258 0.4073613 -0.47367394 0.44018003 -0.19313696 0.46605185
0.6157436 -0.048894454 -0.69934875 -0.33662406
00000000: 133d ee3d 36b0 da3e 5b18 26bf 5506 8abe
00000010: ebce 1b3f 5dd9 95be ee81 5dbd ed9c e3be
00000020: 9f23 cfbe ef52 60be 54bd b93e a991 d03e
00000030: 6485 f2be 475f e13e b2c5 45be 599e ee3e
00000040: 5fa1 1d3f 8d45 48bd 8508 33bf fd59 acbe

decoder.attn.bias f4 [10]
-0.58062065 -0.40464622 0.49520013 -0.20632118 0.24384516 0.09048155 -0.5927054 0.20694773
-0.20459563 -0.38443384
00000000: 8ea3 14bf ca2d cfbe df8a fd3e dc45 53be
00000010: 8cb2 793e 644e b93d 8bbb 17bf 1bea 533e
00000020: 8481 51be 83d4 c4be

decoder.attn_combine.weight f4 [1, 10]
-0.1703885 -0.21251462 -0.06763461 -0.0664449 0.084644705 0.08309474 0.25825387 -0.15598707
0.26161003 -0.10026231
00000000: 537a 2ebe 6f9d 59be 0484 8abd 4414 88bd
00000010: 345a ad3d 932d aa3d da39 843e 13bb 1fbe
00000020: c0f1 853e 5356 cdbd

decoder.gru.weight_ih f4 [3, 1]
-0.582703 -0.9504795 0.8236582
00000000: 062c 15bf a052 73bf 44db 523f

decoder.gru.weight_hh f4 [3, 1]
-0.41619065 0.6224595 -0.564858
00000000: f116 d5be 8159 1f3f 899a 10bf

decoder.gru.bias_ih f4 [3]
-0.94761205 0.24266899 -0.58583343
00000000: b496 72bf 387e 783e 2ef9 15bf

decoder.gru.bias_hh f4 [3]
0.073753364 0.15312678 -0.9403732
00000000: 010c 973d 44cd 1c3e 4cbc 70bf
