BahdanauGAN/epoch_200/discriminator.pt (torch, 4487 bytes, 5 tensors)

unmixing_layer.weight f4 [8, 1, 1]
00000000: fdd4 abbf 8f2a 863f 1199 b3bf b870 9cbf
00000010: 43b5 13bf 29b2 b2bf b783 4b3f ffea 3e3f
-1.3424374 1.0481738 -1.4031087 -1.2221899 -0.5769846 -1.396062 0.79497856 0.74577326

unmixing_layer.bias f4 [8]
00000000: fd4e 153f da7f 4cbc 97d2 bf3c 402f 263e
00000010: fa71 f7be 1bbc 3b3e d63b 803f 1c60 443f
0.5832365 -0.012481654 0.023415847 0.16228962 -0.48329145 0.18333475 1.001826 0.7670915

temp_conv.weight f4 [8, 1, 50]
00000000: 874c 53be c51b 8bbd 52e9 53be f8ec 3abd
00000010: 1efb 953e f46a 06bd a3dd 6bbe 28bc 3abe
00000020: a553 42bc 61cf e63d a921 a63e 0eec e8bd
00000030: e450 8a3d 6a3f 7f3e b18a 44be bca1 993e
00000040: c88d 0ebe e7b8 e13d 5721 8d3e ce57 803e
00000050: 8cb5 a73d 845f 823e a4eb f5bc 82a1 853c
00000060: bb7f 72be 6cb0 40bd 5a11 53be 3f52 ba3c
00000070: 052d 32be c538 173e b8c4 98be 5571 94bd
00000080: d445 bf3d 3944 bc3d 1692 a33e 3557 123e
00000090: c12f 5e3e 5f81 afbe 3681 c63c f880 0cbe
000000a0: 0565 043c 98ba 063e 94ce 1ebe 3a46 c13d
000000b0: 0890 2fbe 14ea 2d3d 9425 c6bc a2c9 e23c
000000c0: 21d3 8f3d 8223 023d cc91 013e 3cd7 bcbe
000000d0: c65a e43d e764 863d edc1 0dbd d24c 173e
000000e0: 5d00 ca3d 3ebd 70be 3101 e0b9 3b86 9abe
000000f0: 38fa b3bc 090b 50be 4ce0 9abe fdb0 d2be
00000100: 73fd 803e 3b25 e13d cdca d9bd 6ec4 db3d
00000110: 9c5d 6abe 713b 03be 59f1 10bf 1120 263e
00000120: 90c0 6cbd a6dd 86bd 47a9 6abc c283 63be
00000130: 6bb7 4bbe 2c32 153d d23e fdbe 857b 1dbe
00000140: 9e2f 173c 3d96 34bc d5b9 41be 0cb3 be3e
00000150: 7812 3ebd 374c bc3e 83c7 243e 8cd0 22be
00000160: 8603 433e 1a96 923e 1644 e13d ff83 ffbe
00000170: 09fe a7be 3d9e 6ebc 84c6 303e 0026 d03e
00000180: d961 88be 630b 52bc 04df 2fbe 4968 82be
00000190: d8df 443e aa41 bbbe 718b 743e cec9 f13d
000001a0: 962c 923d 3be2 7c3e 4cba b43d d67f 92be
000001b0: a41f bf3c 86c4 19bc 2204 d43d 1c9f 4bbd
000001c0: e579 fc3d 3619 6dbe bc5e 90bb 3dd7 263e
000001d0: a767 89bc e7c7 5dbd 29be 843d 70ac b1bd
000001e0: b5a6 32be 752e 62bc 91b7 c9be 02a9 083e
000001f0: 895e 61bd dcfc 87be 570c 513d 3b71 94be
00000200: b057 90be 186f c0bc 7a9d febd 2eac 403e
00000210: 4b3d 2a3e 47af 32be 28a0 d7be f2e2 02be
00000220: 2eb7 20be f937 39bd d6da 07be dbff 23be
00000230: 53eb 8bbe ca26 61be 997a 4e3c ae00 56be
00000240: 5fdd e7bd e013 d6bd eaa4 f23e eb24 c2bd
00000250: 3a2b 47bd afba b83d b793 45ba 5564 c0bd
00000260: 7107 58bd b24c 0d3d d1b9 173e 0f82 323e
00000270: 66ab 3e3b 20b1 6cbd f062 1d3e 19f0 b93d
00000280: eea3 373e dbb3 8c3d b82c 3dbd 469c df3d
00000290: 33bc dabd 147f 553e 0aa7 debd c3c6 be3e
000002a0: 755d ef3d e78e adbc 5f90 9cbe 6b23 433e
000002b0: b2e9 d73e 45ee e7bc fb95 e73d ab1a 353d
000002c0: ffb0 fd3c 6778 123f a24d d6be 7c25 f83d
000002d0: 230e ae3e da8b 873e 5b40 833d 8725 4d3e
000002e0: 04b7 cf3e 331b 5abd 97cc d73d 3b3b d0bd
000002f0: 8f27 143e 87de 023e d7d9 133d 9fe6 353d
00000300: dbe8 bdbc f43b ac3e b15e 82bd 5186 78bd
00000310: 3397 8dbe 6ca8 2dbe def5 a9bd 463b 4fbe
00000320: b44d a8bc f491 8fbd f77f f4bd 9f4c 1d3c
00000330: e884 c23d f34c b8bd 310d 6dbd 9981 8cbd
00000340: c011 16be 2646 4cbe fb49 91bd 455f 95bb
00000350: 56ba 113e 7128 08be 1abd 4c3d 2179 0d3e
00000360: 58d0 0abe 664a 86be 0c26 573d 2883 c6bd
00000370: 4b74 20bd 1e5f bdbd 9bdc ebbd 8a7b 04be
00000380: 3f94 88bd a8fd c93d c133 33be 82ca 79be
00000390: 73b3 c63d 44fa 24be f1a9 123d 05dd 03be
000003a0: b916 94bd d402 ffbd 0b4c aebc ccf1 0b3e
000003b0: 9907 993d 12b7 b93c 26d4 f5bd 9698 95bd
000003c0: 3178 84bc bd55 b1bd 84e8 663d 9f7d 31bd
000003d0: 59dd ed3c 888f 85bd 18b6 483d d517 bb3c
000003e0: 3acf 613d 34ec f6bd 572d d73c 6743 0cbe
000003f0: e69e 7fbd aa6f f0bd 8902 1cbe 982a 8a3e
-0.20634662 -0.06792406 -0.20694473 -0.045636147 0.2929315 -0.032816842 -0.23033766 -0.18235838
-0.011860763 0.11270023 0.32447556 -0.11373149 0.0675371 0.24926534 -0.19193532 0.30006206
-0.13921273 0.110215954 0.275645 0.2506699 0.08188924 0.25463498 -0.030019589 0.016312364
-0.23681538 -0.04704325 -0.20612088 0.022744296 -0.17399986 0.1476775 -0.29837584 -0.07248179
0.093394905 0.091927 0.31947392 0.1429108 0.21697904 -0.3427839 0.024231534 -0.13721073
0.008080726 0.13157117 -0.15508491 0.09437223 -0.17144787 0.042459562 -0.02418784 0.027684037
0.070226915 0.031772144 0.12653273 -0.3688296 0.11150126 0.06562214 -0.03460877 0.14775398
0.098633505 -0.2350969 -0.00042725497 -0.30180535 -0.0219699 -0.2031671 -0.3024925 -0.41150656
0.25193366 0.10993429 -0.10634384 0.10730825 -0.22887272 -0.12815644 -0.5661827 0.1622317
-0.05780083 -0.06585245 -0.014322585 -0.2221823 -0.19894187 0.0364248 -0.4946199 -0.1537915
0.009227661 -0.011022148 -0.18918546 0.37245977 -0.046404332 0.36776897 0.16091733 -0.15899867
0.19044313 0.28630143 0.109993145 -0.49905393 -0.32811 -0.014564094 0.17263228 0.40653992
-0.26637152 -0.012820098 -0.17174917 -0.25470188 0.19226015 -0.36573535 0.23881318 0.11806069
0.0713741 0.24695675 0.08824596 -0.28613156 0.023330517 -0.009385234 0.10352351 -0.049712285
0.12327937 -0.23154148 -0.0044058245 0.16293044 -0.016773058 -0.05414572 0.06481583 -0.08675468
-0.17446406 -0.0138050215 -0.39397863 0.13345721 -0.055021796 -0.26560104 0.05103716 -0.28992638
-0.281919 -0.023490474 -0.1243238 0.18815681 0.16624944 -0.17449676 -0.42114377 -0.12781885
-0.15694878 -0.045219395 -0.13267073 -0.1601557 -0.27327976 -0.21987453 0.012602472 -0.20898697
-0.1132152 -0.104530096 0.47391444 -0.09479698 -0.04862521 0.09019982 -0.0007536965 -0.09394137
-0.05274147 0.03449697 0.14816977 0.17432426 0.002909386 -0.057786107 0.15369773 0.09078998
0.17933628 0.06870242 -0.046185225 0.10918479 -0.106804274 0.20849258 -0.10871704 0.37261018
0.116877474 -0.021186305 -0.30578896 0.1905648 0.42170483 -0.028311858 0.113079034 0.044214886
0.030968187 0.5721497 -0.41856104 0.121165246 0.3399516 0.26473886 0.06408759 0.20033847
0.40569317 -0.053248595 0.10537069 -0.10167547 0.14468215 0.127802 0.03609642 0.04440939
-0.023182323 0.3363949 -0.06365717 -0.06067497 -0.27654418 -0.16958779 -0.082988486 -0.20237455
-0.020544864 -0.0701026 -0.1193847 0.009600787 0.09498006 -0.08999052 -0.05787391 -0.06860656
-0.14655209 -0.19948635 -0.07094189 -0.004558476 0.14231238 -0.13296677 0.04998503 0.13815738
-0.1355604 -0.26228637 0.05252652 -0.09692985 -0.039173406 -0.09246658 -0.115166865 -0.12937751
-0.06668901 0.09862834 -0.17500211 -0.24393657 0.09702196 -0.16111094 0.0358066 -0.12877281
-0.072308965 -0.12451711 -0.021276494 0.13666457 0.07472152 0.022670303 -0.12003355 -0.07304494
-0.016170593 -0.086589314 0.056374088 -0.043332692 0.02903621 -0.06521517 0.049001783 0.022838512
0.055129267 -0.12056771 0.026266737 -0.13697587 -0.062407397 -0.11740048 -0.15235342 0.2698562

temp_conv.bias f4 [8]
00000000: f37b 9ebc f519 a0bd 45a6 c23d 0bf6 043d
00000010: ebda 9ebd 035a b83c 75d2 83bd 28ee 983d
-0.019346213 -0.07817451 0.0950437 0.032461207 -0.07756599 0.022503858 -0.06436626 0.074673

fc_layer.weight f4 [1, 160]
00000000: 9846 ff3e aa20 83bc 85c3 683e 4979 27be
00000010: a1d2 073e a315 8b3e b31e d63b b6fa ce3c
00000020: b2d9 b9bd a7ac 38bd 8596 973d d444 813d
00000030: 7d67 a6bc aa43 48be be45 c23c 93ea 8b3e
00000040: 48eb d2bd 530c 99be 0294 983e 3859 6dbe
00000050: 87dd 93be 66c7 60be 681f aebd ace1 9cbd
00000060: 8ada b33d 6f7d ca3d 56bc d73e 0a8a 2dbe
00000070: a072 3b3e 42d2 de3e c251 443e ebae 84be
00000080: 7cfa d9be 472a 703e e79f cabd 71e1 f7bd
00000090: fc8b 86be da5f 5cbe 9586 cc3e 1d98 06bd
000000a0: 0c1e 2a3e 7d6f b5bd 75f9 6d3d c193 68bd
000000b0: c9e4 54be 209b e93d af52 993d 932d d33d
000000c0: eac1 b0bd f0e5 d2bb ce3e 203e 7301 b23e
000000d0: 8405 8fbe 6909 083e bf2d 1ebe d278 4a3d
000000e0: a55e 9a3e 8f3f b53e 2590 29be cb28 4e3c
000000f0: 6491 15bd b95b ccbd 418e 7abe 9415 4a3e
00000100: ebcc 483e a387 783e 0b6a 18be d9a0 683e
00000110: 9940 3cbe f1cd c2be cbf5 b53c f8cf 083c
00000120: 7023 2f3e 1262 4dbe ad37 e9bd 8c17 1e3e
00000130: 26be 69be e9f0 8fbe 1599 803d ebca 223e
00000140: 4fc6 4b3e 147b 133e 8c78 023e a86b b1bc
00000150: 9293 c63d 7a52 08be 9dcd c3bd 3635 22bd
00000160: 3242 03bc f0d6 283e eb00 1e3d 03a6 a03b
00000170: dff3 2a3d b41f 053e 4eed 1e3d 8392 a73d
00000180: 708a da3d 3b6e 373e 96de 2b3d c7d4 c6bc
00000190: 9050 013f 8d40 e93d 839f 60be 74d4 103e
000001a0: 3ba3 af3d e3bc b83a 494e c63c 0beb 963d
000001b0: 55c8 b1be 556f 453e 993e 0b3e 0827 2cbc
000001c0: 50b8 643e a3d5 5c3d ef34 7abe 06e9 31be
000001d0: eaab 573e 55a8 283e 8801 ae3d cbe7 883d
000001e0: 5f2f bbbd 4804 22bd a7d5 41bd 2106 67bd
000001f0: 3cbc e3bd 6bb7 7b3d 901a 583d eb08 c2bb
00000200: d557 b8bd 0099 d7bd 3631 afbc 80ee d9bd
00000210: 4168 f6bc 9ab3 7e3d 48db 12be f83d 49bd
00000220: 78e9 adbc 4869 863c d2cc 593d 8ca1 2dbe
00000230: bf39 6ebe 2bb1 f83c 2947 b83d 66d6 d1bc
00000240: 9c5f 633d 59bd aabc 3bcf 173e a03e eabc
00000250: 9fd0 663c 07b0 1fbd 6bb6 f83d bb92 d8bd
00000260: 11d9 8c3c 85bb 70bd bc16 9f3d 16be 13be
00000270: 4946 a9bc e1e2 363e 6e41 a53e 3489 70bd
0.49858546 -0.016006786 0.22730835 -0.1635486 0.13263942 0.27164945 0.0065344214 0.025266033
-0.09074725 -0.04508653 0.07401756 0.06311956 -0.020313019 -0.19557062 0.023714896 0.27327403
-0.102987826 -0.29892215 0.2980042 -0.23178566 -0.2887995 -0.21951064 -0.08502084 -0.07660231
0.087819174 0.09887206 0.42135876 -0.16947189 0.18305445 0.4351979 0.19171813 -0.25914702
-0.42573917 0.23453628 -0.0989378 -0.121035464 -0.26278675 -0.2152094 0.39946428 -0.03285991
0.16613024 -0.08859155 0.05809923 -0.056781534 -0.207904 0.11406541 0.07486474 0.10311427
-0.08630736 -0.006436102 0.15648958 0.3476673 -0.27933896 0.1328484 -0.15447138 0.04943163
0.30150333 0.35400054 -0.16558893 0.012582968 -0.03651561 -0.09978432 -0.24468328 0.19734794
0.1960942 0.24270491 -0.14884202 0.22717609 -0.18384017 -0.38047746 0.02221193 0.008350365
0.17103362 -0.20056942 -0.113875724 0.1543867 -0.22826442 -0.28113487 0.06279198 0.1589772
0.19899867 0.1440242 0.12741297 -0.02165778 0.096961156 -0.13312712 -0.09560702 -0.039601527
-0.008011388 0.16488242 0.038575094 0.0049026026 0.04173648 0.13000375 0.03880053 0.08182242
0.10670936 0.17913143 0.04196032 -0.024271382 0.50513554 0.11389265 -0.21935849 0.14143544
0.085760556 0.0014094379 0.024207251 0.0736905 -0.34723154 0.19280751 0.13598098 -0.010507353
0.22335935 0.053914677 -0.24434255 -0.17374048 0.21061674 0.16470464 0.08496386 0.06684836
-0.09139895 -0.039554864 -0.047322895 -0.05640233 -0.11119887 0.061454218 0.052759707 -0.0059214733
-0.09001128 -0.10527229 -0.02138577 -0.106411934 -0.030079009 0.062183 -0.14341462 -0.049131364
-0.02122949 0.016407624 0.053173847 -0.16956156 -0.23264216 0.030357918 0.08997948 -0.025614928
0.055511102 -0.020842241 0.14825146 -0.028594315 0.014087825 -0.038986232 0.121441685 -0.105748616
0.01719335 -0.058772583 0.07768008 -0.14427981 -0.020663397 0.17859985 0.3227648 -0.058724597
