BahdanauGAN/epoch_200/generator.pt (torch, 4125 bytes, 11 tensors)

encoder.gru.weight_ih f4 [3, 1]
00000000: f6e2 48bf 9682 e13e 72a6 473f
-0.78471315 0.44044942 0.7798835

encoder.gru.weight_hh f4 [3, 1]
00000000: c739 ebbe 7f39 843e 664f 7b3e
-0.45942518 0.25825116 0.24542007

encoder.gru.bias_ih f4 [3]
00000000: 7440 513f 68db 83bf dda0 56bf
0.8173897 -1.0301332 -0.8383921

encoder.gru.bias_hh f4 [3]
00000000: 12bd 063f bc3b 813d efab bfbe
0.5263225 0.063102216 -0.37435862

decoder.attn.weight f4 [10, 2]
00000000: 38f2 e13e f0b1 b53e b83b 2e3e dafe 183f
00000010: 9316 1e3f 58f2 2cbf 3494 233f 6bda f23e
00000020: fb51 b63e 6e06 f73e 4cdf 44be c713 073f
00000030: d88e aabe 6f59 19bf 4c16 b0be e18c 12bf
00000040: 580e b6be 75d4 b7be 219b 5bbe aa04 343f
0.4413011 0.35487318 0.17014968 0.5976387 0.61753196 -0.6755729 0.63898015 0.47432265
0.3560942 0.48247093 -0.19225806 0.5276455 -0.33312106 -0.5990209 -0.3439201 -0.57246214
-0.35557818 -0.3590428 -0.21445896 0.70319617

decoder.attn.bias f4 [10]
00000000: 6a0b 823e 5f74 69be 85a4 923e b2c8 db3e
00000010: 718b bcbe ea81 cd3e d7ce 833c c4b2 2abe
00000020: db22 07bf c862 0c3f
0.25399333 -0.22798298 0.28641143 0.42926556 -0.36825135 0.4013818 0.01608984 -0.16669756
-0.5278756 0.5483823

decoder.attn_combine.weight f4 [1, 10]
00000000: 229b 8e3e 80d5 b5bd 55d2 13be 6024 a73e
00000010: 2e27 bb3d 8d3b 9cbe 8438 59be 0a2b a1be
00000020: 82fd a6be a261 cb3d
0.27852732 -0.088786125 -0.14435704 0.3264494 0.09138332 -0.30514184 -0.21212965 -0.3147815
-0.32615286 0.09930731

decoder.gru.weight_ih f4 [3, 1]
00000000: 2789 2cbf e130 10bf 0e02 abbd
-0.6739678 -0.56324583 -0.08350001

decoder.gru.weight_hh f4 [3, 1]
00000000: 99a0 ec3e 1724 c03e 9821 a23e
0.46216276 0.37527534 0.31666255

decoder.gru.bias_ih f4 [3]
00000000: f98f 063f 570a 8fbe b1ee 0a3f
0.52563435 -0.27937576 0.54270464

decoder.gru.bias_hh f4 [3]
00000000: a9a0 063f 4062 0dbf 7fb6 3fbf
0.525889 -0.5522804 -0.7488784
