BahdanauGAN/epoch_200/generator.pt (torch, 4125 bytes, 11 tensors)

encoder.gru.weight_ih f4 [3, 1]
00000000: 2b2d 103e 7bf5 2c3f 6560 493f
0.1407973 0.67562073 0.7866271

encoder.gru.weight_hh f4 [3, 1]
00000000: f97e 77bf 4048 823f dc06 4abf
-0.9667812 1.0178299 -0.78916717

encoder.gru.bias_ih f4 [3]
00000000: 3721 193f 9121 60bf 57a0 0dbf
0.59816307 -0.8755122 -0.55322784

encoder.gru.bias_hh f4 [3]
00000000: 73f7 1fbf f55e 843c 0fea 3c3f
-0.6248695 0.01615856 0.73794645

decoder.attn.weight f4 [10, 2]
00000000: 54a3 9e3d e15f 0a3f b237 5bbf 50ea 7bbf
00000010: 45d7 133f 4020 80be 2cb9 01bf 9ddf a3bf
00000020: 584f b7be 26cb 69be da10 233f c394 513f
00000030: 8751 ddbe c56d 253f f844 02bf ff1b 9c3f
00000040: f31b 513f c0e8 bebe 76c0 76bf aec8 84bf
0.07745996 0.5405255 -0.8563186 -0.9840441 0.5775035 -0.25024605 -0.50673175 -1.2802616
-0.35802722 -0.22831401 0.6369759 0.8186762 -0.43226263 0.6462062 -0.5088649 1.2196044
0.8168327 -0.3728695 -0.9638742 -1.0373743

decoder.attn.bias f4 [10]
00000000: fa2f 23bf b866 49bf 86d8 013f 85d6 51bf
00000010: 38dd 8c3e a84d 1f3f 50bc 30bf 7f8e 363f
00000020: e0af 6fbe f2c4 5abf
-0.6374508 -0.7867236 0.50721014 -0.81967956 0.27512527 0.6222787 -0.6903734 0.7131118
-0.23406935 -0.85456765

decoder.attn_combine.weight f4 [1, 10]
00000000: 57f2 08be 365c d2be f6b9 ae3c 5604 0cbf
00000010: 9b9b 97bc 6a9b 973e 9205 643e a059 ebbe
00000020: 740a de3e d2a1 9cbe
-0.13373695 -0.41085976 0.021328907 -0.54694116 -0.018506816 0.2961076 0.2226775 -0.45966816
0.4336735 -0.3059221

decoder.gru.weight_ih f4 [3, 1]
00000000: d534 a3be 0c83 8bbf 9125 fa3e
-0.31876245 -1.0899367 0.48856786

decoder.gru.weight_hh f4 [3, 1]
00000000: 5b2e 55be bad9 843e cd41 44bf
-0.20818464 0.25947362 -0.76662904

decoder.gru.bias_ih f4 [3]
00000000: 3bd7 97bf 9dc5 273f c75d a1be
-1.1862558 0.6553591 -0.3151686

decoder.gru.bias_hh f4 [3]
00000000: 43d9 28be 5ad9 103f 2222 2cbf
-0.16489129 0.5658165 -0.6723958
