BahdanauGAN/epoch_50/discriminator.pt (torch, 5709 bytes, 5 tensors)

temp_conv.weight f4 [1, 1, 50]
000000 d6 d1 1b 3e 73 50 88 3e 2a be 7c 3e 9d 0a a8 3e
       0.15216765 0.26623878 0.24681917 0.32820597
000010 80 12 b7 3e bc b4 ab 3e cd 52 1d 3e 47 a4 c3 3e
       0.35756302 0.33536327 0.15363617 0.3821127
000020 c8 49 c4 3e 31 a2 94 3e c7 06 98 3e b6 4c c4 3e
       0.3833754 0.29029992 0.2969267 0.38339776
000030 68 0f 5f 3e 21 4f 5c 3e 37 25 b4 3e 9e d9 4f 3e
       0.21783221 0.2151456 0.35184643 0.20297858
000040 32 83 c0 3e 7b aa 8c 3e 06 bb 31 3e 19 32 cd 3e
       0.37600094 0.27473816 0.173565 0.40077284
000050 69 f6 4b 3e b2 14 cd 3e 89 b2 b1 3e 74 3b a8 3e
       0.19918217 0.40054852 0.34706524 0.3285786
000060 1a b8 85 3e b4 7a 99 3e 3d f0 2a 3e d9 3f 35 3e
       0.2611702 0.29976428 0.16693206 0.17700137
000070 bc 46 be 3e d0 f5 85 3e 60 04 32 3e db 5b 88 3e
       0.3716334 0.26164103 0.17384481 0.2663258
000080 35 a5 b1 3e 88 32 7f 3e 33 2b 94 3e 3d ca 3b 3d
       0.34696355 0.2492162 0.28939208 0.045847166
000090 0a 27 1a 3e c4 14 84 3e cd 0b b3 3e 1a 61 d4 3d
       0.15053955 0.25797093 0.3496994 0.10370083
0000a0 c4 ce 92 3e f4 a6 68 3e b0 90 61 3e d2 01 dd 3d
       0.28673375 0.22719938 0.2202785 0.10791363
0000b0 8f 3f 6e 3e 60 b6 72 3e 4e e8 18 3e f4 c8 49 3e
       0.23266433 0.23702383 0.14932367 0.19705564
0000c0 4d 4d 4f 3e cb 3e b1 3e
       0.20244332 0.3461822

temp_sel.0.w1 f4 [1, 200]
000000 d4 04 06 be 80 27 8b bb 33 b9 bb ba 75 af bd bb
       -0.1308778 -0.004246652 -0.0014322161 -0.0057887384
000010 2e 23 84 bb 52 86 7c 3b 99 99 41 b7 6d 15 15 bc
       -0.004032514 0.003853221 -1.1539459e-05 -0.009099347
000020 14 d7 ae bb c2 15 04 3a 7d 9e 05 be 4c d7 f8 bb
       -0.005335698 0.00050386426 -0.1304874 -0.0075940248
000030 7b c3 9b 3a 33 8a d3 bb 66 d0 9d 3b ab cc dc bb
       0.0011883819 -0.0064556836 0.004816103 -0.0067382655
000040 37 43 12 bc 66 da 9b 39 b6 ff a4 bb bb 44 d3 bb
       -0.008927158 0.00029726623 -0.005035366 -0.0064474023
000050 30 70 35 be 76 a9 96 3b e1 ff 88 bb 1f ef 84 3a
       -0.17718577 0.004597838 -0.004180894 0.0010142064
000060 2b dd f1 3b 3d 9a 98 ba ab 15 d6 3b 2e 8d 81 3b
       0.0073811016 -0.0011642646 0.0065333447 0.0039535975
000070 23 27 6e bb 1c f4 e1 3b 98 e0 4c bc 3d a2 41 3b
       -0.0036339245 0.006895555 -0.012504719 0.0029546164
000080 0d 8a c8 3b e9 a7 9d bb 33 15 2a ba 3d 02 fa 39
       0.0061199726 -0.004811276 -0.0006488144 0.00047685383
000090 fb 47 06 3c 85 8b 18 ba 47 9d af b9 23 08 ea 3b
       0.008195872 -0.000581913 -0.00033495782 0.0071420833
0000a0 11 dc 8b 3c 00 89 e2 bb 3d ea a8 3b bb 59 88 3b
       0.01707271 -0.0069133043 0.0051548765 0.0041610873
0000b0 7b 4e 19 bc 30 3c 16 bc 33 79 0a 3a af 0c 19 bc
       -0.00935709 -0.009169623 0.00052823423 -0.009341403
0000c0 1e 80 4f bb cf 97 97 bb 76 52 91 3e 57 ed ae 3b
       -0.0031662057 -0.0046262513 0.28383225 0.0053383517
0000d0 cb 60 13 3c c5 5d da bb e6 05 e5 bb 02 59 88 3b
       0.008995245 -0.00666401 -0.0069892285 0.004161001
0000e0 9d 1f 03 bc c2 9e ab ba de e3 a1 bb 5c 2d 82 bb
       -0.008003143 -0.0013093578 -0.004940494 -0.0039726924
0000f0 84 f6 a2 3e 7b da fc ba a4 8d 19 3b 0f 88 81 bb
       0.31828701 -0.0019291186 0.0023430372 -0.003952987
000100 7b 12 8f ba e1 b5 c1 3a 33 52 89 3b f6 c4 03 bb
       -0.0010915542 0.0014778936 0.004190707 -0.0020106412
000110 dc 8d 11 3b 47 a4 18 bb a3 b6 36 be c2 94 61 3b
       0.00222098 -0.0023291276 -0.17843108 0.0034420942
000120 6b fc 2f 3b 17 3b bd 3b fc c9 0a bc c2 95 c1 b9
       0.0026853334 0.0057748663 -0.008471008 -0.00036923407
000130 12 c3 ab bb 2e 08 67 3b f6 8d 03 bc c7 aa db 3b
       -0.00524176 0.0035252678 -0.008029452 0.006703708
000140 4f f5 5c be 99 fc 94 ba 42 52 48 3b c7 66 ce 3b
       -0.21577953 -0.0011366784 0.0030566608 0.006298873
000150 66 95 c5 ba 61 af 7d bb 6b 9e b0 bb 29 f2 06 3a
       -0.0015074431 -0.003870927 -0.0053899786 0.0005147779
000160 97 e8 0c bc e1 f7 12 bc 24 d9 85 3e 29 ec e2 3a
       -0.008600376 -0.008970232 0.26142228 0.0017312813
000170 1c 5c 94 bb f5 a8 b8 b9 9e f1 d9 3b 4a c3 ce 3b
       -0.004527582 -0.00035221098 0.0066511175 0.0063099014
000180 9f 52 00 3c 92 be b7 bb 47 ad b2 3a d9 bc 11 bc
       0.007832198 -0.0056074345 0.0013631963 -0.008895122
000190 96 01 81 3e 35 ec b4 bb 54 a8 d2 3b 2e c7 26 3b
       0.25196522 -0.005521322 0.0064287577 0.002544831
0001a0 a4 f3 00 3b 87 70 96 bb 36 08 10 3c f0 a0 6b bb
       0.001967647 -0.004591051 0.00879102 -0.003595408
0001b0 33 e5 f1 bb 42 6f f6 3b f9 38 65 be 64 5d 0f 3c
       -0.007382059 0.007520587 -0.22385015 0.008750293
0001c0 80 6f 06 bb 3d 7e 07 3a 2e 4d c8 bb 1f a3 00 bb
       -0.0020513237 0.0005168652 -0.006112716 -0.0019628478
0001d0 02 59 ad 3b 1e ff 97 3b cf 33 d3 bb 69 ad d6 3b
       0.0052901516 0.0046385666 -0.006445385 0.006551434
0001e0 8f 90 8f 3e 1c 23 1b 3c 29 1e ad 3a bd d3 78 3b
       0.28039977 0.00946882 0.0013207841 0.0037968003
0001f0 b9 6d 0e bc 5c b9 13 bc 99 85 f0 39 47 ea b8 ba
       -0.008693152 -0.009016361 0.00045875905 -0.0014107906
000200 66 7c 55 3b 29 0c 63 bb 16 97 81 be f4 cc 14 3c
       0.0032575368 -0.00346447 -0.25310582 0.009082068
000210 35 3d b3 bb 30 b3 e3 3b 30 2c 90 3b 4f 33 05 3c
       -0.005469943 0.006948851 0.004399799 0.008129909
000220 f0 ca 52 3b 85 9e 49 bb b8 6e 98 38 3d 55 f5 3b
       0.0032164417 -0.003076465 7.268548e-05 0.007486968
000230 9c f3 7c be 2b 7b df bb 9c f1 f3 3b 02 1c 0f bc
       -0.24702305 -0.0068201027 0.0074445736 -0.008734705
000240 bb 71 c7 3b 0d ab 16 bc bd 9f 6a bb 52 75 94 3b
       0.006086556 -0.009196055 -0.0035800778 0.0045305872
000250 c2 29 69 ba 2e fc fd 3b c2 f1 85 be 7b 22 a6 3a
       -0.0008894467 0.0077510094 -0.2616101 0.0012675071
000260 3d 26 b8 bb ee 62 8f 3b 7b 02 cc ba 73 7c 94 3b
       -0.0056197927 0.004375807 -0.0015564704 0.004531437
000270 45 a4 88 3b 00 da 28 bb 8c 2b fe 3b 3d e4 22 ba
       0.004169973 -0.0025764704 0.007756656 -0.000621382
000280 67 e3 84 3e 2b 81 02 bc 57 69 c8 bb 3d 5f b5 bb
       0.25954744 -0.007965366 -0.006116073 -0.005535035
000290 33 69 07 3b 52 56 1e 3a 14 bb 53 bb 5e 08 f9 3b
       0.002066207 0.00060400844 -0.0032307552 0.0075998744
0002a0 9e 89 d2 3b bd e5 00 bc 8d d8 84 3e 94 9e af 3b
       0.0064250967 -0.007867274 0.25946465 0.00535948
0002b0 d7 2a 58 3b 0e 4d 16 bc 9f 45 0d bb b8 01 d4 ba
       0.003298452 -0.009173645 -0.002155639 -0.0016174829
0002c0 cf 4a 09 3c 24 0d 49 3b c7 ef 71 bb 05 97 f2 3b
       0.008379652 0.0030677998 -0.00369166 0.007403257
0002d0 e9 3d 8a be e1 28 79 bb 22 d5 16 3c cf 74 a4 bb
       -0.2700036 -0.003801875 0.009206088 -0.0050188075
0002e0 1c 56 90 3b ca 16 05 3c 47 9f 13 3c eb af ca ba
       0.0044047963 0.008123109 0.009010143 -0.0015463805
0002f0 58 3d 1d bc 78 04 0d bc 59 6b 86 3e 7d a2 dc 3b
       -0.009597145 -0.008607022 0.26253775 0.0067332373
000300 cc 62 77 3a 00 94 8d 3b 3d 66 cf b9 87 e8 b2 bb
       0.0009437024 0.0043206215 -0.0003955829 -0.0054598483
000310 2e 75 5c bb 9e 5d 3a bb 12 e3 16 bc d4 d2 cc bb
       -0.003363918 -0.0028437148 -0.009209411 -0.0062507186

temp_sel.0.w2 f4 [1, 200]
000000 f0 9b 4c 3d 29 34 37 3b d2 73 6f bb b3 f4 86 3b
       0.0499534 0.0027954674 -0.003653754 0.004118526
000010 72 c6 0c 3c 36 fa 20 3c 8d 77 17 3c 70 c8 3b 3b
       0.008592235 0.00982528 0.009244812 0.0028653406
000020 2e 02 c1 3b 47 78 f4 3a fc 41 28 be f3 7a f9 3b
       0.0058901524 0.0018651568 -0.16431421 0.0076135336
000030 fb 8e 9f 3b ad bd 0d 3c 3b 30 f0 3b 97 a6 b8 bb
       0.0048693395 0.008651179 0.0073299683 -0.0056350934
000040 c7 ce 83 bb fd 6e fd 3b 07 6d d7 3b f8 d5 97 3b
       -0.0040224525 0.007734178 0.0065742764 0.0046336614
000050 8e 57 67 be 6b 97 27 bb f6 60 2b ba 26 0d ad 3b
       -0.22591993 -0.002557243 -0.00065375806 0.0052811084
000060 c2 b8 6a bb 0a 77 5e ba db f1 1c bc 62 73 19 3c
       -0.003581569 -0.0008486366 -0.009579147 0.009365888
000070 52 d3 8c ba c2 76 ae 3a e8 05 30 be 5f ce 8e bb
       -0.0010744131 0.0013310539 -0.17189753 -0.0043580974
000080 b3 71 88 3b 59 5b c3 3b bd ee cc 3b 4e d3 0d bc
       0.0041639446 0.005961817 0.0062540458 -0.008656336
000090 5c 16 53 bb 5c 02 a7 3a b2 41 0f bc 7b d5 58 bb
       -0.0032209372 0.0012741792 -0.00874369 -0.0033086229
0000a0 f1 ea 23 be c7 02 0b 3b 78 25 d6 3b 0a 4c b7 3b
       -0.16007592 0.0021211372 0.0065352283 0.0055937814
0000b0 64 6c 03 3c 2e 1b f3 3b 0a 8a db bb fb f5 c1 bb
       0.008021448 0.0074190116 -0.006699805 -0.0059192157
0000c0 dc 94 ad 3b 73 7f a5 3b 13 bb 8f be 5c b3 15 3a
       0.0052972864 0.0050505935 -0.28072414 0.00057106256
0000d0 b8 e6 d4 b9 3b a5 be bb a9 0d 15 bb a1 92 1b bc
       -0.0004060769 -0.005818037 -0.0022743738 -0.009495408
0000e0 a2 2e 20 bc eb d1 9b ba eb 94 b1 ba e1 eb 99 3a
       -0.009776743 -0.0011888122 -0.0013548409 0.0011743271
0000f0 83 71 ae be 00 4c 7d 3b 4e e5 1c 3c 0f 2e 9c 3b
       -0.34070978 0.0038650036 0.009576155 0.004766233
000100 a6 87 c6 bb 45 13 13 bc e1 a2 72 3a 29 35 aa 3a
       -0.006058651 -0.008976762 0.0009255838 0.0012985814
000110 7b f8 8d 3a eb a5 d0 39 79 eb eb bd c0 7e 1b 3c
       0.0010831499 0.0003979647 -0.11519522 0.009490669
000120 f9 75 0b bc f5 93 e3 bb 2e ab 08 bb 02 3e c5 3b
       -0.008512014 -0.006945128 -0.0020853984 0.006019355
000130 3d f6 c1 39 de e4 17 bc 6b 16 b2 bb d9 90 80 bb
       0.0003699529 -0.009270875 -0.0054348013 -0.003923517
000140 8b c9 5d be f6 a2 04 3c 66 0d 8d bb 37 1c 16 3c
       -0.21658914 0.008095494 -0.0043045757 0.009162
000150 00 14 75 bb 14 af cb ba f2 c5 20 bc e1 32 0b bc
       -0.0037395954 -0.0015539848 -0.009812819 -0.008496017
000160 cd 43 94 bb 38 c4 0f 3b 10 e1 7b be 6b d4 c5 bb
       -0.004524684 0.0021937024 -0.24597573 -0.006037285
000170 24 1b 07 3c ae 5f 5b 3b c2 b5 44 b9 8f 21 bd bb
       0.008246217 0.0033473778 -0.00018759727 -0.0057718228
000180 19 61 67 bb 38 05 dd 3b 19 b2 e7 3b 14 06 cb ba
       -0.0035305677 0.006745007 0.0070707914 -0.0015489482
000190 e8 3d 91 be 4f e1 cd bb 19 8a b2 3b 5e 96 ab bb
       -0.28367543 -0.0062829624 0.0054485914 -0.005236431
0001a0 eb cc bb ba 66 69 6d 3b 87 36 e0 3b a1 ee b9 3b
       -0.0014328038 0.0036226152 0.0068424377 0.0056741987
0001b0 0a f7 37 bb 0f 0d fd bb 6a 72 9b be 45 0a db bb
       -0.002807083 -0.007722504 -0.30360729 -0.006684574
0001c0 25 3e 21 3c 14 59 16 bb c2 08 6b 3b 52 99 b6 ba
       0.009841477 -0.0022941278 0.0035863374 -0.0013931191
0001d0 85 d1 22 ba e3 33 f1 3b b3 01 55 3b a4 84 cc 3a
       -0.00062110304 0.0073609217 0.0032502234 0.0015603495
0001e0 a3 fd a2 be 2e 41 d7 bb 52 67 ee ba 1f 41 89 3a
       -0.31834134 -0.0065690493 -0.0018188751 0.0010471678
0001f0 85 03 b7 b9 07 3e 1f bc bb 60 e0 bb 2b 9d 15 bc
       -0.00034907102 -0.009719378 -0.0068474687 -0.00913171
000200 99 65 9d 3a a4 e8 42 3b 5d 31 8d be 70 6a cd 3b
       0.0012008428 0.0029740715 -0.27576724 0.006268792
000210 a3 2f 71 3b 9e 41 eb 3b 21 e0 ce bb d2 65 a7 bb
       0.0036802075 0.007179453 -0.0063133393 -0.0051085735
000220 66 d4 e9 3b 94 3a 80 bb 5c c9 cb ba 1e 39 4c 3b
       0.0071359156 -0.003913233 -0.0015547681 0.0031161974
000230 bd f0 9f be 61 60 a4 3b 87 1b 14 3c 6a 5d 13 bc
       -0.31238356 0.005016372 0.009039766 -0.00899444
000240 bf c8 02 bc f6 a4 a8 3a ee b7 9b bb f6 34 96 3a
       -0.007982432 0.0012866545 -0.0047521507 0.0011459875
000250 c7 e7 01 3c 29 30 b8 b9 fc c8 6c be 12 6d eb bb
       0.007928795 -0.00035131097 -0.23123544 -0.007184633
000260 29 84 03 bb 1f cd 0e 3c 7b e5 b8 3a e6 bc cf bb
       -0.0020067787 0.008715897 0.0014106476 -0.006339657
000270 3d 12 0a 3c c6 99 22 3c 25 81 13 bc 92 ac 04 3c
       0.0084272 0.009924358 -0.009002958 0.008097785
000280 b7 1e 7e be 4c 91 65 3b 85 52 c0 3b 3d fc 76 ba
       -0.24816404 0.003502923 0.005869212 -0.00094217417
000290 1e 56 72 3b 3b f8 f8 bb f5 69 5f 3b 78 ef 09 bc
       0.00369776 -0.0075979508 0.0034090255 -0.00841891
0002a0 94 77 1f bb 0f 20 00 3b dc 09 89 be c0 62 11 3c
       -0.0024332749 0.0019550358 -0.26765335 0.0088736415
0002b0 e9 c5 c3 3b 29 b8 9f bb 04 33 1a bc bc fa 10 3c
       0.0059745205 -0.0048742485 -0.009411577 0.008848842
0002c0 a4 5e ad 3a cd 20 14 3c c7 45 0e 3c f8 c3 fc bb
       0.0013227058 0.009041023 0.008683628 -0.007713791
0002d0 7c d0 84 be a3 20 ef 3a 52 b9 d0 3b 26 6e 0e bc
       -0.2594031 0.001824398 0.006369748 -0.008693254
0002e0 a4 bc 51 bb 99 e1 f7 3a 0d 73 b6 3b 85 63 83 39
       -0.0032003308 0.0018911838 0.0055679143 0.00025060415
0002f0 ee 5c c4 bb 57 7d a0 bb 23 c8 93 be 6e fb a2 bb
       -0.0059925234 -0.004897754 -0.2886363 -0.0049738204
000300 5c 7c 91 ba ed bf 20 3c 5c e7 15 b9 74 1b 0e 3c
       -0.0011099684 0.009811384 -0.00014295935 0.0086735375
000310 f3 f0 03 bc 99 05 63 ba 94 c0 22 bc ca ef 8f 3b
       -0.008053052 -0.0008660197 -0.0099336095 0.0043925988

temp_sel.0.b f4 [1, 200]
000000 66 29 5e be 38 23 77 3b 69 c2 de bb c2 bc b5 3b
       -0.2169548 0.00377102 -0.006798078 0.0055461833
000010 47 6a 13 bc 64 3a 21 3c 99 91 7d 3a 00 f7 2e 3b
       -0.008997506 0.009840582 0.000967288 0.0026697516
000020 29 6a 88 bb 47 26 15 3c b1 d1 49 be d2 6b ea 3b
       -0.004163046 0.009103364 -0.19708897 0.0071539665
000030 29 90 a4 b9 cd 99 07 bb 66 58 ef 3b d9 40 11 3c
       -0.00031387925 -0.0020691038 0.007304239 0.008865559
000040 d7 71 fd 3b 47 d6 52 bb 47 25 d4 ba 6e f7 12 3c
       0.007734518 -0.0032171176 -0.0016185426 0.008970125
000050 99 02 51 be a6 d1 1d bc 1e 65 76 b9 b8 66 3a bb
       -0.20411147 -0.009632504 -0.00023498057 -0.0028442573
000060 85 ee 51 3b 05 94 71 bb e1 40 33 3a 38 28 a6 3b
       0.0032033038 -0.0036861908 0.0006837976 0.0050707124
000070 3d 26 06 3a 6b ff 2a 3b c3 e7 35 be e9 70 b1 bb
       0.0005117392 0.0026092182 -0.17764191 -0.0054150713
000080 3d c7 91 bb 6f 15 13 3c 6e 5a 9f 3b 94 9f 32 3b
       -0.0044488 0.008977278 0.004863075 0.002725576
000090 47 31 1e bc 7b 14 75 ba 97 2e 9a 3b c7 2d b0 bb
       -0.009655303 -0.000934906 0.004705261 -0.005376551
0000a0 51 df 3f be b4 a9 02 3c 7f 56 10 bc 19 ad 73 3b
       -0.18737532 0.007975031 -0.008809685 0.0037182032
0000b0 54 a8 e6 bb 6b e1 1b bc 37 e6 0e 3c bb 37 1b 3c
       -0.0070391092 -0.009514193 0.00872188 0.009473736
0000c0 47 9a c1 bb 6b eb 9b 3b 61 fa 50 be 00 ae 80 3a
       -0.005908284 0.0047582886 -0.20408012 0.0009817481
0000d0 2b 72 00 3c 54 a2 b4 3b 00 98 d6 39 52 dd 2a bb
       0.00783972 0.005512515 0.0004093051 -0.0026071859
0000e0 66 3e d7 b9 6b bb 0a bb 33 7c 95 3a 29 3c c9 3a
       -0.00041054486 -0.0021168839 0.0011404812 0.0015353012
0000f0 cc 66 72 be 17 2d ea bb 47 91 ef ba 4d 12 0e 3b
       -0.23672026 -0.0071464884 -0.0018277549 0.0021678389
000100 8a 4c 6d 3b 66 6d 99 3b 8a 9c b0 bb 1c ac 86 3b
       0.003620895 0.0046822308 -0.0053897547 0.0041098725
000110 eb b0 03 3c 14 3c 96 bb fd 9c 64 3e bd 9f a4 3b
       0.008037786 -0.0045847986 0.22325511 0.005023925
000120 cc 25 f5 3b 7c 23 0c bc a4 ae 1d ba a9 af 08 3b
       0.0074813124 -0.008553382 -0.0006015098 0.0020856655
000130 0d 39 9a 3b a4 08 85 3b 3d f5 d9 bb 29 5d d1 3b
       0.004706508 0.004059868 -0.006651549 0.0063892794
000140 b6 ff 3e be c0 38 a2 bb 2e ca 49 3b d2 c9 36 bb
       -0.18652233 -0.004950613 0.0030790675 -0.002789129
000150 7d ba b9 3b 85 9a f0 3a 47 76 1c 3b cd 1b a4 3b
       0.005667983 0.0018356597 0.002387421 0.005008197
000160 17 99 09 bc 8a 0f 88 bb 9d ce 4d 3e eb 93 65 3a
       -0.008398316 -0.004152243 0.20098348 0.0008757698
000170 9c 7b 9f 3b 5e 01 c1 3b d7 d1 e2 3a f6 a8 86 b9
       0.0048670303 0.0058900556 0.0017304969 -0.00025684357
000180 b8 7f 41 3b 12 b5 95 bb e1 2e 8d 39 00 05 fd ba
       0.002952559 -0.0045687044 0.00026928543 -0.0019303858
000190 42 08 45 3e 14 76 d2 bb 96 79 0c bc e6 45 17 3b
       0.19241431 -0.0064227674 -0.00857391 0.0023082434
0001a0 73 b2 c5 3b 93 0f 0e 3c e0 c3 16 bc 70 de de 3b
       0.0060332357 0.008670705 -0.009201974 0.006801419
0001b0 19 59 de 3b b8 0a 66 ba 61 21 33 be e6 9a cd 3b
       0.0067855236 -0.0008775401 -0.17493202 0.006274569
0001c0 40 4a 91 3b 0f 36 ae bb 78 3d f1 3b 99 0e 01 3b
       0.0044339 -0.005316503 0.007362064 0.0019692539
0001d0 54 0f 9c bb 27 8b 05 3c 59 38 ae 3b b3 78 13 3b
       -0.0047625694 0.008150852 0.0053167758 0.0022502362
0001e0 ad eb 45 3e 4a 07 e9 3b a4 2b 20 bb 98 dc 06 3c
       0.19328184 0.0071114646 -0.0024440074 0.008231305
0001f0 f6 ca 00 3a df f4 8b bb 64 74 ba bb a4 66 d0 ba
       0.0004913056 -0.0042711343 -0.0056901444 -0.001589973
000200 38 20 c4 3b 89 95 01 bc e9 1c 40 be 8c ec f4 3b
       0.005985286 -0.007909187 -0.18761028 0.0074744876
000210 76 0b 84 bb f8 13 88 bb f5 f9 c4 ba 5c ed f5 ba
       -0.0040296866 -0.004152771 -0.0015028106 -0.0018762755
000220 cc 09 56 3b c7 4e 5d 3b b3 ea 02 3c 3c 2f 05 3c
       0.0032659648 0.0033768879 0.007990527 0.008128937
000230 8a 4a 3c be 4f 03 d4 bb f0 22 0b bc e9 bb af bb
       -0.1838781 -0.006470121 -0.0084922165 -0.005362977
000240 e9 de 16 3c d7 23 c8 bb 20 cb 13 bc 1e 8d dd b9
       0.009208419 -0.006107788 -0.009020597 -0.00042257545
000250 40 de 15 bc 3d 1a 88 39 17 d2 4d be 99 81 ef 39
       -0.009147227 0.0002595949 -0.20099674 0.0004568219
000260 85 f8 1a 3b ae 1d 69 bb 1e f2 9b ba 6e 31 ff 3b
       0.0023646664 -0.003557067 -0.0011897718 0.007787875
000270 00 77 b0 bb 84 cd 0c 3c 47 cc a7 3b 6b 36 cd 3b
       -0.0053852797 0.008593921 0.0051207873 0.0062625906
000280 bf 40 43 3e 4d dd 19 3b 60 67 04 bc ae 84 a3 3b
       0.19067667 0.0023477853 -0.008081287 0.004990182
000290 7b d6 e9 3b 05 28 14 3b 8f 7d 41 3b 0f 8e b8 3b
       0.007136164 0.0022606861 0.0029524302 0.005632169
0002a0 a6 00 e9 bb ed 1e 17 3c 47 be 5f 3e 7c ce 03 3c
       -0.007110673 0.009223682 0.21849929 0.008044835
0002b0 82 b8 0a 3c 33 9b 25 ba 00 39 78 bb 7b 1d c7 bb
       0.008466842 -0.0006317377 -0.0037875772 -0.0060765124
0002c0 24 3c 4c 3b db 3d 0f 3c ae d3 8e 3a a4 52 49 bb
       0.0031163776 0.008742775 0.0010896826 -0.0030719424
0002d0 3e c9 5f be 14 8d f7 3b cc e5 52 bb 52 c0 2d 39
       -0.21854112 0.0075546596 -0.0032180427 0.0001657021
0002e0 3b ac 9a 3b 47 4c ca 3a 40 cc 9a 3b 33 93 cd 38
       0.0047202385 0.0015434109 0.0047240555 9.80258e-05
0002f0 a9 81 52 3b 99 c9 fd 38 18 e0 43 3e eb 20 ab 3b
       0.003212074 0.000121015306 0.19128454 0.00522243
000300 6e 11 03 3c 7b 24 f5 b9 e1 7a 94 3b 40 7e 86 bb
       0.007999761 -0.00046757222 0.00453125 -0.0041044056
000310 6e 31 df bb 1f 68 91 bb 19 a7 c9 3b eb 34 77 bb
       -0.0068113124 -0.004437461 0.006153953 -0.003772075

fc_layer.weight f4 [1, 20]
000000 50 43 8f 3e 90 7b d1 3e 2e 3c 9b 3e 9d b1 97 3e
       0.27981043 0.40914583 0.3031935 0.29627696
000010 ad 52 23 3e e4 19 ec 3e 44 29 a9 3e ad 9d 58 be
       0.15949507 0.46113503 0.33039296 -0.21153899
000020 65 8c de 3e 6a da cf be 4a 96 c6 be d7 62 db 3e
       0.43466488 -0.40596324 -0.38786536 0.42848846
000030 b7 bf 97 be e0 d3 d0 3e 6e ef ae 3e bc 65 cd 3e
       -0.29638454 0.40786648 0.34167045 0.4011668
000040 df da a6 be 68 58 8e be 39 79 9c 3e 09 3a 9d be
       -0.3258886 -0.27801824 0.30561236 -0.3070834
