BahdanauGAN/epoch_50/discriminator.pt (torch, 4487 bytes, 5 tensors)

unmixing_layer.weight f4 [8, 1, 1]
-0.83477926 0.6510806 -1.0698124 -0.8420928 -0.4681711 -1.0000467 0.66730076 0.2578658
00000000: 18b4 55bf 38ad 263f 9def 88bf 6593 57bf
00000010: 1fb4 efbe 8801 80bf 39d4 2a3f fc06 843e

unmixing_layer.bias f4 [8]
0.57999045 -0.014332358 0.034683816 0.17468724 -0.46954063 0.19502087 0.99008924 0.78451264
00000000: 417a 143f 44d2 6abc 9e10 0e3d 36e1 323e
00000010: a167 f0be 8db3 473e 7d76 7d3f d2d5 483f

temp_conv.weight f4 [8, 1, 50]
-0.15906753 -0.03078461 -0.07260172 -0.04317627 0.1512466 -0.02442864 -0.103224665 -0.14623386
0.005502859 0.033951554 0.14596534 0.083154514 0.1277647 0.06312403 -0.07697604 0.1256039
-0.009131595 0.087330244 0.15791126 0.15982576 -0.0034063773 0.1190075 -0.009949367 0.051281754
-0.12256151 0.016510272 -0.11353969 0.026302947 -0.066182606 -0.015240355 -0.16518527 -0.07532112
0.10493091 -0.114607595 0.086520374 0.07726054 0.062456466 -0.1520345 0.11368782 0.0079588415
0.047870535 0.009992292 -0.09474974 -0.06057382 -0.021836406 0.08285088 0.06417291 0.051310405
-0.026212359 0.041379333 0.035949018 -0.25463274 -0.13384785 0.0407005 -0.04075996 0.15938595
0.018658895 -0.21586855 -0.006505543 -0.14784352 -0.006967224 -0.1274224 -0.15420635 -0.2180879
0.16255459 -0.07172287 -0.02148337 0.0979523 -0.03508495 -0.045426644 -0.22711138 -0.0650767
-0.008931323 -0.07533203 0.020985037 -0.1679836 -0.19241458 0.14396754 -0.20267601 -0.04107908
0.07411435 -0.016752943 -0.069082364 0.24563684 -0.0693136 0.2600903 0.121373646 -0.015639484
0.052624602 0.111135796 0.10556024 -0.19576341 -0.09609945 -0.10557342 -0.010074116 0.14454617
-0.13954926 -0.059849754 -0.12101267 -0.18603931 -0.012675525 -0.23924129 0.068827204 0.17730309
-0.0067705964 0.1058699 -0.01093396 -0.23536655 -0.14399107 -0.10297017 0.031597257 -0.052147735
-0.0960036 -0.103886865 0.033202395 0.018176805 -0.0026884044 0.014343495 -0.056292944 -0.083868764
-0.07427635 -0.06021285 -0.22191541 -0.1619374 -0.18506242 -0.13902739 0.0090386495 -0.18268366
-0.14928767 -0.02348215 -0.022688266 0.045838784 -0.0069713453 -0.11016244 -0.23027393 -0.1412416
-0.15167387 -0.03617016 -0.06923901 -0.1481831 -0.19153503 -0.07890355 -0.028381255 -0.17073166
-0.10434538 -0.043232586 0.22019823 -0.10151448 -0.041240323 0.07385131 0.0005206487 -0.007873919
0.040378865 -0.16922523 0.030875381 -0.002416716 0.08611966 -0.095510975 0.12378702 0.11261286
0.016690139 0.15454338 0.06413336 0.07825936 0.07014375 0.18143538 -0.023831194 0.11879771
0.027496863 0.002298789 -0.16099033 0.10586465 0.17890066 0.16343175 0.18362378 -0.05037236
-0.00078074343 0.20451984 -0.06745485 0.13113593 0.2171587 0.18382332 0.10833136 0.15187053
0.19316144 0.06409243 0.061884124 -0.031343117 0.08692953 0.055735976 -0.005583775 -0.02917351
0.018160507 0.22593914 0.039088868 0.055372197 -0.11235834 0.08567096 0.0041313693 -0.051847827
-0.007775222 -0.115472496 -0.09597073 0.040838268 0.08864749 -0.034125462 -0.09478239 0.014317433
-0.09348116 -0.16150492 -0.018042283 -0.023686813 0.113290064 -0.1325001 0.0027402057 0.115602314
-0.14131297 -0.16483821 0.069015704 -0.08531785 -0.017334808 -0.036176577 -0.045033406 -0.14645515
-0.024800584 0.0782988 -0.1255782 -0.17902903 0.0630132 -0.16028096 0.027391186 -0.085327715
-0.054199073 -0.14755337 -0.061616223 0.05319512 0.08708079 0.019698162 -0.08859291 -0.09527875
0.018296234 -0.032141402 0.004469912 -0.055676084 -0.02619844 -0.10995023 -0.022370731 -0.010396339
0.050268 -0.116587475 -0.061027326 -0.2171828 0.027140941 -0.15431632 -0.1633474 0.07218442
00000000: 99e2 22be 0230 fcbc 36b0 94bd 9ad9 30bd
00000010: 64e0 1a3e 921e c8bc 7467 d3bd 54be 15be
00000020: 5451 b43b c910 0b3d f077 153e ea4c aa3d
00000030: c0d4 023e 2c47 813d 9da5 9dbd 4f9e 003e
00000040: af9c 15bc 33da b23d 7db3 213e 5da9 233e
00000050: 873d 5fbb 34ba f33d ab02 23bc d10c 523d
00000060: 8701 fbbd 8d40 873c 7f87 e8bd 4779 d73c
00000070: bf8a 87bd afb2 79bc 5426 29be f641 9abd
00000080: 04e6 d63d 63b7 eabd 9831 b13d c63a 9e3d
00000090: 5ad2 7f3d efae 1bbe 29d5 e83d cd65 023c
000000a0: e513 443d b6b6 233c 270c c2bd 411c 78bd
000000b0: 43e2 b2bc b9ad a93d 166d 833d dc2a 523d
000000c0: 4dbb d6bc 607d 293d 473f 133d 395f 82be
000000d0: 690f 09be 91b5 263d eaf3 26bd 1236 233e
000000e0: 8ada 983c a50c 5dbe 732c d5bb 4b64 17be
000000f0: 504d e4bb 057b 02be 45e8 1dbe 6f52 5fbe
00000100: b674 263e 71e3 92bd e4fd afbc 379b c83d
00000110: 3db5 0fbd 4a11 3abd e38f 68be ef46 85bd
00000120: af54 12bc ae47 9abd d0e8 ab3c e503 2cbe
00000130: 5408 45be 3a6c 133e 4d8a 4fbe 8a42 28bd
00000140: 44c9 973d 783d 89bc 0e7b 8dbd 3988 7b3e
00000150: 4af4 8dbd 8e2a 853e bf92 f83d 601e 80bc
00000160: e58c 573d 2a9b e33d f82f d83d 3476 48be
00000170: cacf c4bd e136 d8bd e80d 25bc e903 143e
00000180: 00e6 0ebe 0425 75bd 7ed5 f7bd 1781 3ebe
00000190: 01ad 4fbc abfb 74be 47f5 8c3d f18e 353e
000001a0: e1db ddbb 51d2 d83d 5a24 33bc ee03 71be
000001b0: 6572 13be 06e2 d2bd 206c 013d dd98 55bd
000001c0: 899d c4bd a3c2 d4bd 3cff 073d 86e7 943c
000001d0: f12f 30bb fa00 6b3c 6e93 66bd 63c3 abbd
000001e0: 331e 98bd c0a1 76bd cb3d 63be ebd2 25be
000001f0: 0181 3dbe 325d 0ebe d816 143c 6d11 3bbe
00000200: dede 18be a35d c0bc bedc b9bc 73c1 3b3d
00000210: e26f e4bb d89c e1bd eecc 6bbe a3a1 10be
00000220: 6550 1bbe 2927 14bd 2fcd 8dbd 50bd 17be
00000230: c221 44be 2f98 a1bd ce7f e8bc 48d4 2ebe
00000240: 08b3 d5bd a714 31bd a57b 613e d3e6 cfbd
00000250: 9deb 28bd 5b3f 973d 257c 083a 9c01 01bc
00000260: 4f64 253d 6149 2dbe 5eee fc3c c461 1ebb
00000270: 815f b03d 429b c3bd 0d84 fd3d 92a1 e63d
00000280: c2b9 883c 9f40 1e3e 5a58 833d 7146 a03d
00000290: 87a7 8f3d 32ca 393e a339 c3bc 374c f33d
000002a0: 1a41 e13c 48a7 163b a6da 24be 91cf d83d
000002b0: bc31 373e a75a 273e df07 3c3e 3f53 4ebd
000002c0: ceaa 4cba a66d 513e c525 8abd 7f48 063e
000002d0: da5e 5e3e 2e3c 3c3e d5dc dd3d f383 1b3e
000002e0: 1dcc 453e e442 833d 357a 7d3d a461 00bd
000002f0: 1c08 b23d 684b 643d 1af8 b6bb 49fd eebc
00000300: 58c5 943c 975c 673e a61b 203d f5cd 623d
00000310: 211c e6bd 4274 af3d 7060 873b 635e 54bd
00000320: 4ac7 febb d87c ecbd 4d8c c4bd 0746 273d
00000330: d18c b53d 24c7 0bbd 451d c2bd ab93 6a3c
00000340: 0d73 bfbd 8c61 25be 69cd 93bc d90a c2bc
00000350: 9f04 e83d 1bae 07be 0695 333b e8c0 ec3d
00000360: 59b4 10be 59cb 28be 1b58 8d3d 20bb aebd
00000370: ba01 8ebc e42d 14bd f374 38bd 57f8 15be
00000380: 982a cbbc 1f5b a03d 9297 00be 6353 37be
00000390: 110d 813d b120 24be 7b63 e03c 4cc0 aebd
000003a0: d9ff 5dbd 3b18 17be 4b61 7cbd 20e3 593d
000003b0: 6a57 b23d 0a5e a13c 3370 b5bd 8121 c3bd
000003c0: fce1 953c b4a6 03bd 5778 923b 9b0c 64bd
000003d0: 1c9e d6bc 962d e1bd d342 b7bc 6855 2abc
000003e0: d2e5 4d3d 6ac5 eebd caf7 79bd 2b65 5ebe
000003f0: ae56 de3c 1905 1ebe 8a44 27be 6dd5 933d

temp_conv.bias f4 [8]
-0.025687663 -0.06846241 0.082290985 0.04268422 -0.08638058 0.010383974 -0.055283673 0.06925296
00000000: ef6e d2bc 0536 8cbd 2d88 a83d a6d5 2e3d
00000010: 4de8 b0bd 8b21 2a3c 2271 62bd 7fd4 8d3d

fc_layer.weight f4 [1, 160]
0.16376224 0.0022406392 0.10874319 -0.051677886 0.05339055 0.11159997 0.04667946 0.0029595068
-0.048527796 -0.033654094 0.0418654 0.05265903 0.0050287447 -0.012623452 0.04346805 0.050650865
-0.033386856 -0.100293405 0.10737354 -0.12003804 -0.122540615 -0.055000402 0.08081139 -0.040919274
-0.06686233 0.06787798 0.19694577 -0.11792639 0.025318228 0.17634436 0.015818972 -0.15503623
-0.19847241 0.08345031 -0.07318193 -0.08773019 -0.101835005 -0.1500498 0.10510206 -0.05418161
0.0837802 0.019062681 0.101909034 0.009920427 -0.08012836 0.03646727 0.09910986 0.083449386
-0.012052509 0.037348405 0.130533 0.18818761 -0.08392753 0.087486885 0.04422341 0.13839464
0.17436163 0.13163236 0.0559884 -0.027409896 -0.094222896 -0.08886508 -0.07278785 0.10685534
0.018793961 0.077847876 -0.086721376 0.039917942 -0.10876805 -0.17720947 -0.039093453 -0.023599755
0.07107195 -0.043691117 -0.061195742 -0.0528458 -0.13294421 -0.10697633 -0.08141906 0.0045444476
0.107571855 0.10389882 0.08576037 0.007824227 0.07028382 -0.007790678 -0.0009156765 -0.031473394
0.020073885 0.11427874 0.020538237 0.044694025 0.053413652 0.09524644 0.049843557 0.0326027
0.09544231 0.12562749 0.034024466 0.03059767 0.1201255 0.12451961 0.0331856 0.0759419
0.110733554 0.040853832 -0.02204628 0.04432125 -0.15950708 0.097990766 0.07844852 0.07277554
0.14726262 0.07133544 -0.001962634 -0.03893033 0.09691466 0.06146302 0.010239458 0.08293663
-0.006276097 -0.050084196 -0.06255076 -0.048091955 -0.10495837 0.049208812 0.042469088 -0.022466676
-0.10430652 -0.07479459 0.00753145 -0.0874111 -0.030561823 0.013646961 -0.08461178 -0.05993472
-0.029281022 0.011629367 0.022614522 -0.08931181 -0.06416153 0.064716026 0.04172651 0.0001519887
-0.013496367 0.029708065 0.06880489 -0.0536739 0.02339317 -0.02406325 0.041591488 -0.055696465
-0.037208177 -0.06768767 0.06506278 -0.0564599 -0.03362856 0.08307654 0.05466085 -0.039782006
00000000: 4ab1 273e b0d7 123b c0b4 de3d 31ac 53bd
00000010: 0db0 5a3d 868e e43d f632 3f3d 49f4 413b
00000020: 15c5 46bd e0d8 09bd 0e7b 2b3d ffb0 573d
00000030: 2bc8 a43b 98d2 4ebc 8e0b 323d 4877 4f3d
00000040: a8c0 08bd a166 cdbd a9e6 db3d 81d6 f5bd
00000050: 93f6 fabd 1a48 61bd 7180 a53d f89a 27bd
00000060: 1eef 88bd 9c03 8b3d 27ac 493e 6483 f1bd
00000070: 2c68 cf3c 9e93 343e ca96 813c d1c1 1ebe
00000080: 5a3c 4bbe ffe7 aa3d 68e0 95bd e3ab b3bd
00000090: df8e d0bd a8a6 19be c03f d73d 89ed 5dbd
000000a0: f494 ab3d 5729 9c3c afb5 d03d 4989 223c
000000b0: 561a a4bd b45e 153d 1cfa ca3d 83e7 aa3d
000000c0: e377 45bc a4fa 183d 71aa 053e 41b4 403e
000000d0: 32e2 abbd 532c b33d 9b23 353d 53b7 0d3e
000000e0: db8b 323e a2ca 063e 1854 653d b88a e0bc
000000f0: eff7 c0bd e5fe b5bd cc11 95bd f9d6 da3d
00000100: cbf5 993c b56e 9f3d fa9a b1bd ff80 233d
00000110: c9c1 debd 6676 35be 7520 20bd 4654 c1bc
00000120: 2c8e 913d 75f5 32bd 63a8 7abd d674 58bd
00000130: 8722 08be 6816 dbbd 09bf a6bd 97e9 943b
00000140: a24e dc3d e8c8 d43d 22a3 af3d 3031 003c
00000150: f7f0 8f3d f248 ffbb 020a 70ba 3fea 00bd
00000160: fd71 a43c f90a ea3d ce3f a83c 1511 373d
00000170: 46c8 5a3d 9110 c33d c228 4c3d 698a 053d
00000180: 4277 c33d 7ea4 003e 3d5d 0b3d f7a7 fa3c
00000190: 5c04 f63d 2304 ff3d a0ed 073d 6d87 9b3d
000001a0: 46c8 e23d 5956 273d 669a b4bc 338a 353d
000001b0: d355 23be 62af c83d 9ea9 a03d 580b 953d
000001c0: 03cc 163e 5118 923d 899f 00bb 6975 1fbd
000001d0: 317b c63d a6c0 7b3d 66c3 273c aeda a93d
000001e0: b8a7 cdbb 1625 4dbd 9d1a 80bd 12fc 44bd
000001f0: 6af4 d6bd 2e8f 493d 11f4 2d3d 090c b8bc
00000200: a89e d5bd e82d 99bd 62ca f63b 9704 b3bd
00000210: ca5c fabc 8197 5f3c f148 adbd 1c7e 75bd
00000220: c1de efbc 1a89 3e3c 1742 b93c 1ce9 b6bd
00000230: 1f67 83bd d689 843d 6be9 2a3d 285f 1f39
00000240: de1f 5dbc 545e f33c 94e9 8c3d 2ad9 5bbd
00000250: 09a3 bf3c 4b20 c5bc d65b 2a3d fa21 64bd
00000260: 9a67 18bd d59f 8abd a33f 853d 7f42 67bd
00000270: 1abe 09bd 0824 aa3d 0ee4 5f3d 75f2 22bd
