BahdanauGAN/epoch_50/generator.pt (torch, 4125 bytes, 11 tensors)

encoder.gru.weight_ih f4 [3, 1]
00000000: 097b 47bf 447d e43e 3717 463f
-0.7792211 0.4462682 0.77379173

encoder.gru.weight_hh f4 [3, 1]
00000000: c9a8 edbe d7e2 803e 510c 803e
-0.46417835 0.25173065 0.25009397

encoder.gru.bias_ih f4 [3]
00000000: 9c9c 523f ecf5 82bf e713 58bf
0.82270217 -1.0231299 -0.8440537

encoder.gru.bias_hh f4 [3]
00000000: 3a19 083f 1b94 8f3d 2b60 c2be
0.5316349 0.07010671 -0.37963995

decoder.attn.weight f4 [10, 2]
00000000: 8958 dc3e 27af b53e a1c3 333e 80ff 183f
00000010: e7a9 1f3f a3f1 2cbf 6be8 203f 4bd8 f23e
00000020: 6c6c a83e 0afe f63e 9d8c 39be 0815 073f
00000030: 3c51 a4be 0058 19bf b9a2 aabe 928b 12bf
00000040: 5ea8 b0be 84d1 b7be 3d52 61be 0804 343f
0.43036297 0.35485193 0.17555095 0.5976486 0.62368625 -0.6755621 0.6285464 0.47430643
0.3289522 0.4824069 -0.18120046 0.52766466 -0.32093227 -0.598999 -0.33327273 -0.5724422
-0.34503454 -0.35902035 -0.22004028 0.7031865

decoder.attn.bias f4 [10]
00000000: c235 823e f199 69be 9e8e 923e e5f0 db3e
00000010: 8afe bbbe 5e57 cd3e c2d0 803c 3b05 2bbe
00000020: 2837 07bf b66c 0c3f
0.2543164 -0.2281263 0.28624433 0.42957225 -0.36717635 0.40105718 0.015724543 -0.16701214
-0.52818537 0.5485338

decoder.attn_combine.weight f4 [1, 10]
00000000: 1981 893e 9e64 c3bd 32dc 1bbe ea4f a23e
00000010: 0323 a23d 3ca6 95be 7242 4ebe f6d1 9bbe
00000020: 11b0 a1be a58d d93d
0.26856306 -0.095406756 -0.15220717 0.31701595 0.07916834 -0.2922839 -0.20142534 -0.30433625
-0.3157964 0.1062272

decoder.gru.weight_ih f4 [3, 1]
00000000: f17a 1abf 0390 09bf 313e 16be
-0.60343844 -0.5373537 -0.14672162

decoder.gru.weight_hh f4 [3, 1]
00000000: 8dc3 e53e 035d be3e 9e0f a73e
0.44875756 0.37180337 0.32629102

decoder.gru.bias_ih f4 [3]
00000000: af25 163f 7c1f 9fbe a645 063f
0.5865125 -0.31078708 0.52450025

decoder.gru.bias_hh f4 [3]
00000000: 5f36 163f d76c 15bf ce27 42bf
0.58676714 -0.583692 -0.7584199
