BahdanauGAN/epoch_50/generator.pt (torch, 4125 bytes, 11 tensors)

encoder.gru.weight_ih f4 [3, 1]
00000000: 7fbb d63c 8215 393f b4e3 2c3f
0.026212452 0.72298443 0.6753495

encoder.gru.weight_hh f4 [3, 1]
00000000: c30a 74bf bdc1 773f 8008 47bf
-0.9532892 0.96779996 -0.77747345

encoder.gru.bias_ih f4 [3]
00000000: c3a6 133f 6c2a 4abf 2482 13bf
0.57676333 -0.7897098 -0.57620454

encoder.gru.bias_hh f4 [3]
00000000: e771 25bf 91d0 d03d 12ae 363f
-0.64626926 0.10196031 0.7135936

decoder.attn.weight f4 [10, 2]
00000000: eb43 223d 6849 f53e 4ae5 45bf 78f8 d3be
00000010: a868 133f a2ab a6be 6fa7 78be a94c 13bf
00000020: c99c b6be 7c95 85be 1109 073f ba17 9f3e
00000030: 13b2 cdbe 51d2 053f a90f abbe 8fbc 163f
00000040: d408 403f e0e0 27be 3f1e 59bf 9b0f e5be
0.039615553 0.47907567 -0.7730299 -0.41400504 0.5758157 -0.3255282 -0.24282621 -0.5753885
-0.35666493 -0.2609061 0.5274821 0.3107279 -0.40174922 0.5227404 -0.33410385 0.5888147
0.7501347 -0.16394377 -0.84811777 -0.4473847

decoder.attn.bias f4 [10]
00000000: 5396 21bf 5e83 c9be f010 083f 7939 d9be
00000010: 7031 933e 4fd6 713e 7504 2cbf 5745 a73e
00000020: fa4f dabd dc11 e4be
-0.6312 -0.39358038 0.53150845 -0.4242666 0.28748655 0.23616908 -0.671943 0.3267009
-0.106597856 -0.44544876

decoder.attn_combine.weight f4 [1, 10]
00000000: bfa1 debd 8fdf a6be 7f70 b33c 60ab 86be
00000010: 639e 0fbc 8054 573e 7422 363e 8d7b 95be
00000020: b555 c33e 2774 5bbe
-0.10870694 -0.32592437 0.021904228 -0.26302624 -0.00876579 0.21028328 0.1778658 -0.29195824
0.38151327 -0.21431027

decoder.gru.weight_ih f4 [3, 1]
00000000: 878f 1abf 4c15 85bf f6b2 573f
-0.60375255 -1.0397124 0.8425745

decoder.gru.weight_hh f4 [3, 1]
00000000: d5f3 acbe d9b7 013f 7141 25bf
-0.3377978 0.50671154 -0.6455298

decoder.gru.bias_ih f4 [3]
00000000: 9654 85bf 1d80 c23e 71ff f9be
-1.0416439 0.37988368 -0.488277

decoder.gru.bias_hh f4 [3]
00000000: 5620 a6bc a1a7 943e b423 58bf
-0.02027909 0.2903414 -0.8442948
