BahdanauGAN/epoch_250/discriminator.pt (torch, 4487 bytes, 5 tensors)

unmixing_layer.weight f4 [8, 1, 1]
0	0xbfbd4721	-1.4787332
1	0x3f91c592	1.1388419
2	0xbfbc079c	-1.4689822
3	0xbfa60f51	-1.2973424
4	0xbf1afe32	-0.6054412
5	0xbfc03395	-1.5015742
6	0x3f59c4a2	0.8506566
7	0x3f63d0c9	0.88990456

unmixing_layer.bias f4 [8]
0	0x3f156127	0.5835137
1	0xbc66942f	-0.014073416
2	0x3cb10662	0.021609489
3	0x3e244722	0.1604276
4	0xbef89989	-0.48554638
5	0x3e399ee4	0.18127018
6	0x3f807fd4	1.003901
7	0x3f436f05	0.7634128

temp_conv.weight f4 [8, 1, 50]
0	0xbe583809	-0.21115126
1	0xbd96fbb6	-0.07372229
2	0xbe7030c5	-0.23456104
3	0xbcdcf4be	-0.02697217
4	0x3e9af73a	0.30266744
5	0xbd0a6d9b	-0.033795934
6	0xbe8745b4	-0.26420367
7	0xbe163673	-0.14669208
8	0x3c8fef28	0.017570093
9	0x3e0a6ba9	0.13517632
10	0x3eb2137e	0.34780496
11	0xbe4a76a8	-0.19771826
12	0x3d7dd54e	0.061971
13	0x3e98eee8	0.2986977
14	0xbe624474	-0.22096425
15	0x3eb3be62	0.35106188
16	0xbe2c0ba2	-0.16801313
17	0x3deb75a7	0.1149705
18	0x3e9308d0	0.2871766
19	0x3e95aa51	0.29231504
20	0x3da60b3f	0.08107614
21	0x3e8d4a07	0.2759554
22	0xbd6c85f3	-0.05774493
23	0x3c1a8671	0.009431467
24	0xbe923e77	-0.28563282
25	0xbd51d1bc	-0.05122541
26	0xbe5d60dc	-0.2161898
27	0x3c9a68ea	0.018848855
28	0xbe13c5a7	-0.14430867
29	0x3e35d1eb	0.17755859
30	0xbea249a8	-0.3169682
31	0xbd859672	-0.06522836
32	0x3df13354	0.11777368
33	0x3e090d73	0.13384037
34	0x3eb3def8	0.3513105
35	0x3e1a862f	0.1509025
36	0x3e702f5c	0.23455566
37	0xbec881ce	-0.39161533
38	0xbbab9ea5	-0.0052374178
39	0xbe111e44	-0.14171702
40	0xbc422a77	-0.011850945
41	0x3e0857e0	0.13314772
42	0xbe22f029	-0.15911926
43	0x3deb5047	0.11489921
44	0xbe7475db	-0.23873083
45	0x3d19ff1c	0.037596807
46	0xbc73e83c	-0.014886912
47	0x3d2e70af	0.042587932
48	0x3dab2f8b	0.083586775
49	0x3c8a063f	0.016848681
50	0x3e199737	0.1499909
51	0xbec5e9bb	-0.38654885
52	0x3e3903b8	0.18067825
53	0x3da22e17	0.07918947
54	0xbce924ea	-0.028459985
55	0x3e08be0e	0.1335375
56	0x3dc0b73f	0.094099514
57	0xbe7bb098	-0.24579084
58	0xbc0c5e6f	-0.008567437
59	0xbec0442b	-0.37552008
60	0xbc4e738f	-0.0126007935
61	0xbe58e4fc	-0.211811
62	0xbe9ab844	-0.3021871
63	0xbeda849d	-0.426793
64	0x3e8c55d2	0.27409226
65	0x3df8dd3f	0.12151574
66	0xbdde98f4	-0.10869017
67	0x3da5cc1c	0.080955714
68	0xbe7d7b9d	-0.24754186
69	0xbe28c91f	-0.16482972
70	0xbf1eb9ed	-0.6200245
71	0x3e54547d	0.20735355
72	0xbdb826e6	-0.08991794
73	0xbd93e926	-0.07222204
74	0xbcec19ff	-0.02882099
75	0xbe7ae7fe	-0.2450256
76	0xbe47b1ae	-0.19501373
77	0x3d242596	0.040074907
78	0xbf0aaae9	-0.5416704
79	0xbe2592c9	-0.16169275
80	0x3cefb51c	0.029261164
81	0xbbc41d13	-0.005984911
82	0xbe56e5fc	-0.2098617
83	0x3ebe7d64	0.3720504
84	0xbd227882	-0.039665706
85	0x3ed06beb	0.40707335
86	0x3e1223d0	0.14271474
87	0xbe1ac9f8	-0.15116107
88	0x3e360b17	0.17777668
89	0x3eb43977	0.35200092
90	0x3e0530aa	0.13006845
91	0xbeffe343	-0.49978074
92	0xbec209a5	-0.37897983
93	0xbc8e484f	-0.017368464
94	0x3e495783	0.1966229
95	0x3edd728b	0.43251452
96	0xbea0daa5	-0.31416813
97	0xbd2818f1	-0.04103941
98	0xbe3ff8eb	-0.18747298
99	0xbe86a50c	-0.26297796
100	0x3e491e3f	0.19640444
101	0xbec50ac7	-0.38484785
102	0x3e5d6f49	0.21624483
103	0x3dbf2a1a	0.09334202
104	0x3d9393f8	0.07205957
105	0x3e897aa8	0.26851392
106	0x3db369e8	0.087604344
107	0xbe9b6a14	-0.3035437
108	0x3ccdc19d	0.025116736
109	0x3cda9e56	0.026686829
110	0x3dbd375b	0.09239074
111	0xbd5a72e1	-0.053332213
112	0x3e0d1922	0.13779119
113	0xbe873218	-0.26405406
114	0x3c31920e	0.010838045
115	0x3e2d1f0f	0.16906379
116	0xbc486c96	-0.01223292
117	0xbdbae15c	-0.09125015
118	0x3daa157a	0.083048776
119	0xbdf59aad	-0.11992393
120	0xbe51cb6a	-0.20487753
121	0x3be2d9f3	0.006922954
122	0xbece73d7	-0.40322754
123	0x3e311719	0.17293967
124	0xbd187704	-0.037222877
125	0xbe988994	-0.29792464
126	0x3d7fbfd1	0.06243879
127	0xbe9b8e5e	-0.30382055
128	0xbeafe648	-0.34355378
129	0xbd62526a	-0.055254377
130	0xbdf2746a	-0.118386105
131	0x3e4c99fd	0.19980617
132	0x3e42a633	0.19008712
133	0xbe44c0ca	-0.19214168
134	0xbee7c60c	-0.45268285
135	0xbe05fa77	-0.13083826
136	0xbe223984	-0.15842253
137	0xbd70ccd0	-0.058789074
138	0xbe2eebc9	-0.17082132
139	0xbe2985f9	-0.16555013
140	0xbe9d48ad	-0.3071951
141	0xbe6ae4d1	-0.22938849
142	0x3ba65fe7	0.0050773504
143	0xbe5d2f51	-0.21600081
144	0xbdef57d9	-0.116866775
145	0xbe03e7a6	-0.12881336
146	0x3efdd97f	0.4958
147	0xbdc84268	-0.09778291
148	0xbd327e82	-0.04357768
149	0x3db311ed	0.087436534
150	0x3c692d7f	0.0142320385
151	0xbde5ade9	-0.11214811
152	0xbd359001	-0.044326786
153	0x3da0e097	0.07855337
154	0x3e36c0ac	0.17846936
155	0x3e50aea7	0.20379125
156	0xbc943a14	-0.0180941
157	0xbd4963b0	-0.049167335
158	0x3e24ef31	0.1610687
159	0x3d876fdd	0.06613133
160	0x3e477f54	0.19482166
161	0x3d5d4788	0.054023296
162	0xbd586647	-0.052831914
163	0x3e02bf5d	0.12768312
164	0xbdc011e2	-0.09378411
165	0x3e68b61f	0.22725724
166	0xbe06b5aa	-0.13155237
167	0x3ecf0355	0.4043223
168	0x3df9388a	0.12168987
169	0xbd0b3f03	-0.03399564
170	0xbe9eed23	-0.31040296
171	0x3e76ac3d	0.24089141
172	0x3ee29993	0.44257793
173	0xbd21c5a2	-0.039495118
174	0x3ddb4b09	0.10707671
175	0x3d75f34b	0.060046475
176	0x3cafb9a6	0.021450829
177	0x3f2cec66	0.67548215
178	0xbef28bef	-0.47372386
179	0x3e1c33bf	0.15254115
180	0x3eaaf7e6	0.33392256
181	0x3e924a17	0.2857215
182	0x3d8a74d9	0.06760568
183	0x3e39fbce	0.18162462
184	0x3ee04218	0.43800426
185	0xbd7eef7d	-0.062240113
186	0x3dcf9424	0.101356775
187	0xbdb88698	-0.09010047
188	0x3e0e4e3e	0.13897035
189	0x3e2ea9ae	0.17056915
190	0x3d9860e5	0.07440356
191	0x3d858d42	0.065210834
192	0xbc6c60b7	-0.0144273555
193	0x3ea7d21f	0.32777497
194	0xbde37f82	-0.111083046
195	0xbda1201c	-0.078674525
196	0xbe870cb6	-0.26376885
197	0xbe4b78e3	-0.19870333
198	0xbdece9b0	-0.1156801
199	0xbe814582	-0.25248343
200	0xbceb074b	-0.028690001
201	0xbd43f2c1	-0.04783893
202	0xbe057112	-0.13031414
203	0xbb06a647	-0.0020545886
204	0x3dbd6f7c	0.092497796
205	0xbdde1b99	-0.108451076
206	0xbd2a6cb8	-0.04160759
207	0xbdabd04d	-0.083893396
208	0xbe205c63	-0.15660243
209	0xbe5ec6e9	-0.21755566
210	0xbd949240	-0.072544575
211	0xbb6a874f	-0.0035786217
212	0x3e223cdb	0.15843527
213	0xbe0bdc93	-0.13658361
214	0x3d60343a	0.054737307
215	0x3e0c76a7	0.13717137
216	0xbe079aea	-0.13242689
217	0xbe9117d3	-0.2833849
218	0x3d498918	0.04920301
219	0xbdc3a029	-0.095520325
220	0xbd5e635e	-0.054293983
221	0xbde35ce5	-0.111017026
222	0xbe090e17	-0.13384281
223	0xbe088dd9	-0.1333536
224	0xbdb5048d	-0.088387586
225	0x3dca6f00	0.09884453
226	0xbe3853d8	-0.18000734
227	0xbe85b2ad	-0.2611288
228	0x3de666d7	0.11250084
229	0xbe2ddc60	-0.16978598
230	0x3d1ebb3d	0.038752783
231	0xbe0763b6	-0.1322163
232	0xbd9ae489	-0.07563121
233	0xbde84cab	-0.11342748
234	0xbad715ec	-0.0016409731
235	0x3e177895	0.14792092
236	0x3d7699bf	0.060205217
237	0x3c39fe64	0.011352155
238	0xbdfead66	-0.12435417
239	0xbda4c828	-0.08045989
240	0xbcd01675	-0.025401333
241	0xbdc38697	-0.09547155
242	0x3d9a0da3	0.07522132
243	0xbd391cf9	-0.045193646
244	0x3d6740c5	0.056458253
245	0xbd7ffab4	-0.06249495
246	0x3d13941a	0.036029913
247	0x3c794765	0.015214776
248	0x3d46f371	0.048572008
249	0xbdfa690a	-0.12227066
250	0x3c5fe8d8	0.013666354
251	0xbdfd4afb	-0.12367817
252	0xbdd5c814	-0.104385525
253	0xbda96a26	-0.08272199
254	0xbe13a2e1	-0.14417602
255	0x3e9ed37e	0.3102073

temp_conv.bias f4 [8]
0	0xbc93e104	-0.018051632
1	0xbda268ee	-0.0793017
2	0x3dc660d9	0.09686441
3	0x3cfd772d	0.030940617
4	0xbd9baf47	-0.07601791
5	0x3cc95b57	0.024579687
6	0xbd874270	-0.06604469
7	0x3d9c703c	0.076385945

fc_layer.weight f4 [1, 160]
0	0x3f12c0a1	0.5732518
1	0x3c7f302d	0.015575451
2	0x3e76953a	0.24080363
3	0xbe383eb4	-0.1799267
4	0x3e1889e9	0.14896359
5	0x3ea02fa6	0.31286353
6	0x3c2d44bd	0.0105754705
7	0x3d008ab1	0.031382266
8	0xbdcc9b61	-0.09990574
9	0xbd1323b3	-0.035922717
10	0x3d84484a	0.064591005
11	0x3d71b80f	0.059013423
12	0xbd315122	-0.043290265
13	0xbe7a9a62	-0.24472955
14	0x3c63fd6d	0.013915402
15	0x3ea3315e	0.31873602
16	0xbe06bc45	-0.13157757
17	0xbeb6d0b1	-0.35706094
18	0x3ea38bdc	0.31942642
19	0xbe80bd26	-0.2514431
20	0xbe9c01b6	-0.30470055
21	0xbe61496f	-0.22000669
22	0xbe073925	-0.13205393
23	0xbdc14da8	-0.0943864
24	0x3ddb8462	0.107186094
25	0x3dec5666	0.11539917
26	0x3ee87e4f	0.45408866
27	0xbe4ba8fb	-0.1988868
28	0x3e483fc1	0.1955557
29	0x3ef0fe83	0.47069177
30	0x3e5d2dea	0.21599546
31	0xbe895156	-0.26819867
32	0xbef3dda6	-0.47630042
33	0x3e79b126	0.24383983
34	0xbdcf6d2a	-0.10128243
35	0xbdde6763	-0.10859563
36	0xbe93558d	-0.28776208
37	0xbe709413	-0.23493986
38	0x3ee9335d	0.45547
39	0xbbbf1e3c	-0.0058324616
40	0x3e4b7d14	0.19871932
41	0xbdd64d75	-0.104639925
42	0x3d4e3dcc	0.050351903
43	0xbd9520a0	-0.07281613
44	0xbe6b998b	-0.2300779
45	0x3e0c79c2	0.13718322
46	0x3d9ef10a	0.07760818
47	0x3ddd4476	0.108040735
48	0xbdc9e4f6	-0.09858124
49	0xbc818295	-0.015809337
50	0x3e19f23c	0.15033811
51	0x3ec0f415	0.3768622
52	0xbe992f36	-0.29918832
53	0x3e02e87e	0.12784001
54	0xbe3bf077	-0.18353449
55	0x3cbda21d	0.02314859
56	0x3ea38739	0.31939104
57	0x3ecb445a	0.39700586
58	0xbe3833ab	-0.1798846
59	0x3d1d1dc6	0.038358472
60	0xbd43829f	-0.04773199
61	0xbe04e685	-0.12978561
62	0xbe93ff3a	-0.2890566
63	0x3e60b685	0.21944626
64	0x3e7e1509	0.24812712
65	0x3e8c855f	0.27445504
66	0xbe2f14c9	-0.17097773
67	0x3e7b2920	0.24527407
68	0xbe496d2d	-0.19670554
69	0xbee47e05	-0.44627395
70	0x3cbecc73	0.023290848
71	0x3c77c860	0.015123457
72	0x3e4e9b17	0.2017635
73	0xbe34578f	-0.17611526
74	0xbdf900a4	-0.12158325
75	0x3e3c8fdb	0.18414252
76	0xbe845c37	-0.25851604
77	0xbe937afd	-0.2880477
78	0x3d89fd49	0.067377634
79	0x3e1825e3	0.14858203
80	0x3e626672	0.22109392
81	0x3e1a9fd5	0.15100034
82	0x3e098463	0.13429408
83	0xbd2b3bde	-0.04180514
84	0x3ddb7b95	0.10716931
85	0xbe217bf5	-0.15769942
86	0xbdecadbf	-0.11556577
87	0xbd1324b1	-0.035923664
88	0xbb9b06f0	-0.0047310516
89	0x3e340336	0.1757935
90	0x3d268c53	0.040661167
91	0x3b9df51e	0.00482048
92	0x3d252613	0.040319514
93	0x3e01ec41	0.1268778
94	0x3d30e43f	0.043186422
95	0x3db5fa23	0.088856004
96	0x3df78fbe	0.120879635
97	0x3e423b01	0.1896782
98	0x3d55249e	0.052036874
99	0xbc4572cc	-0.0120512955
100	0x3f08b2e6	0.5339798
101	0x3df7b20a	0.12094505
102	0xbe8b9f7f	-0.27270123
103	0x3e178c8f	0.14799713
104	0x3de67037	0.11251872
105	0x3c28d062	0.010303589
106	0x3d03c08c	0.03216605
107	0x3da139c5	0.07872347
108	0xbec2d02a	-0.38049442
109	0x3e5b4a17	0.21414982
110	0x3e26703e	0.16253754
111	0xbc3f58f2	-0.011678921
112	0x3e685fde	0.2269282
113	0x3d85a38a	0.06525333
114	0xbe923259	-0.28554037
115	0xbe35d389	-0.17756476
116	0x3e72ea89	0.2372228
117	0x3e5164bb	0.20448582
118	0x3dfcc32a	0.12341912
119	0x3d88e3cf	0.06684076
120	0xbdf9c6c0	-0.12196112
121	0xbd21a350	-0.039462388
122	0xbd80f481	-0.062966354
123	0xbd790f3a	-0.060805537
124	0xbde19f61	-0.11016727
125	0x3d79707f	0.0608983
126	0x3d628cec	0.055310175
127	0xbaae61f4	-0.0013304339
128	0xbd9ff773	-0.07810869
129	0xbdfdcbbd	-0.123923756
130	0xbcd80b10	-0.026372463
131	0xbdd75c27	-0.105156235
132	0xbd16b5be	-0.036794417
133	0x3d958e5d	0.07302544
134	0xbe2071be	-0.15668389
135	0xbd206ea9	-0.039168034
136	0xbcb96c8c	-0.022634767
137	0x3c8a2a28	0.016865805
138	0x3d85b4d5	0.065286316
139	0xbe3fb899	-0.18722762
140	0xbe92d31a	-0.28676683
141	0x3d52b7f1	0.05144495
142	0x3db4ddae	0.088313445
143	0xbd447b77	-0.047969308
144	0x3db6c94a	0.089251116
145	0xbcd48784	-0.025943525
146	0x3e393dff	0.18090056
147	0xbc724a7d	-0.014788267
148	0xbb95b56b	-0.004568746
149	0xbd3d5918	-0.046227545
150	0x3df215fd	0.118206
151	0xbe085453	-0.13313417
152	0x3c37d3d9	0.011219942
153	0xbd606652	-0.05478508
154	0x3da831b8	0.08212608
155	0xbe227851	-0.1586621
156	0xbc071857	-0.008245549
157	0x3e6963c1	0.2279196
158	0x3ed0b45d	0.40762606
159	0xbd4c2481	-0.0498395
