BahdanauGAN/epoch_250/generator.pt (torch, 4125 bytes, 11 tensors)

encoder.gru.weight_ih f4 [3, 1]
-0.7848592 0.44032642 0.7800517
00000000: 88ec 48bf 7772 e13e 78b1 473f

encoder.gru.weight_hh f4 [3, 1]
-0.45928776 0.25839794 0.24528036
00000000: c427 ebbe bc4c 843e c62a 7b3e

encoder.gru.bias_ih f4 [3]
0.81723493 -1.0302858 -0.83822453
00000000: 4f36 513f 68e0 83bf e295 56bf

encoder.gru.bias_hh f4 [3]
0.5261677 0.0629494 -0.37419987
00000000: edb2 063f 9deb 803d 2097 bfbe

decoder.attn.weight f4 [10, 2]
0.44155315 0.35487357 0.17003213 0.59763867 0.61739683 -0.6755727 0.63921976 0.47432318
0.35675487 0.48247135 -0.1925137 0.5276448 -0.3334041 -0.5990214 -0.34416524 -0.5724625
-0.3558207 -0.3590432 -0.21433735 0.7031962
00000000: 4113 e23e fdb1 b53e e71c 2e3e d9fe 183f
00000010: b80d 1e3f 55f2 2cbf e8a3 233f 7dda f23e
00000020: 93a8 b63e 7c06 f73e 5022 45be bb13 073f
00000030: f1b3 aabe 7759 19bf 6d36 b0be e78c 12bf
00000040: 212e b6be 83d4 b7be 407b 5bbe ab04 343f

decoder.attn.bias f4 [10]
0.25397873 -0.22797745 0.28641853 0.42925304 -0.36830175 0.4013952 0.016105305 -0.16668347
-0.5278617 0.5483766
00000000: 8009 823e ec72 69be 73a5 923e 0ec7 db3e
00000010: 0c92 bcbe ac83 cd3e 46ef 833c 12af 2abe
00000020: f221 07bf 6962 0c3f

decoder.attn_combine.weight f4 [1, 10]
0.2787555 -0.08863893 -0.1441806 0.3266645 0.091671415 -0.30544168 -0.21237653 -0.3150214
-0.3263909 0.09915302
00000000: 0ab9 8e3e 5488 b5bd 14a4 13be 9240 a73e
00000010: 39be bb3d da62 9cbe 3c79 59be 7c4a a1be
00000020: b51c a7be bd10 cb3d

decoder.gru.weight_ih f4 [3, 1]
-0.66455257 -0.56656563 -0.08051027
00000000: 1e20 2abf 720a 11bf 92e2 a4bd

decoder.gru.weight_hh f4 [3, 1]
0.46326962 0.37534636 0.31578317
00000000: ad31 ed3e 662d c03e 55ae a13e

decoder.gru.bias_ih f4 [3]
0.52340525 -0.27591348 0.54322284
00000000: e3fd 053f 8844 8dbe a710 0b3f

decoder.gru.bias_hh f4 [3]
0.5236599 -0.54881805 -0.74825406
00000000: 930e 063f 577f 0cbf 948d 3fbf
