BahdanauGAN/epoch_250/generator.pt (torch, 4125 bytes, 11 tensors)

encoder.gru.weight_ih f4 [3, 1]
000000 54 67 2f 3e b2 aa 29 3f a2 1b 51 3f
       0.1712926 0.66276085 0.8168279

encoder.gru.weight_hh f4 [3, 1]
000000 75 fd 77 bf ff ef 83 3f e2 66 4a bf
       -0.9687112 1.0307616 -0.79063237

encoder.gru.bias_ih f4 [3]
000000 34 1b 1a 3f 89 ac 66 bf 54 7c 0c bf
       0.6019776 -0.9010702 -0.5487721

encoder.gru.bias_hh f4 [3]
000000 76 fd 1e bf 70 00 1a bc df 2c 3e 3f
       -0.621055 -0.009399518 0.7428722

decoder.attn.weight f4 [10, 2]
000000 f8 9c af 3d 0b 2c 0f 3f 35 7a 60 bf 66 c8 89 bf
       0.08574861 0.5592658 -0.87686473 -1.0764282
000010 23 df 13 3f 8a 70 76 be 6d 31 14 bf 5f bc b5 bf
       0.57762355 -0.24066368 -0.5788792 -1.4198111
000020 02 a5 b7 be 8a 8b 64 be fa 62 2b 3f f2 e2 6e 3f
       -0.35868078 -0.22318855 0.669479 0.9331504
000030 84 3e e1 be 80 d9 2b 3f 24 df 0d bf d9 99 aa 3f
       -0.43993008 0.67128754 -0.5541861 1.33282
000040 da 8b 54 3f e4 c4 d4 be 20 f7 7d bf 5a ba 90 bf
       0.83025897 -0.41556466 -0.9920521 -1.130687

decoder.attn.bias f4 [10]
000000 9c c4 23 bf 0c 4b 4b bf 65 15 01 3f 89 fb 49 bf
       -0.6397188 -0.7941139 0.5042327 -0.7889944
000010 57 ce 8b 3e 4d b8 28 3f 57 9a 31 bf 3c a8 33 3f
       0.27305862 0.6590622 -0.6937613 0.7017858
000020 2c 27 88 be ec d0 58 bf
       -0.26592386 -0.8469379

decoder.attn_combine.weight f4 [1, 10]
000000 b2 02 10 be 52 4f dc be ad d4 ae 3c 07 6e 20 bf
       -0.14063528 -0.43029267 0.021341646 -0.6266789
000010 ac b5 a8 bc a0 b8 a3 3e 4b 36 6e 3e 7c 05 01 bf
       -0.02059444 0.31976795 0.23262899 -0.50398993
000020 43 94 e3 3e 17 10 a7 be
       0.44449052 -0.32629463

decoder.gru.weight_ih f4 [3, 1]
000000 82 2b 72 be c7 dd 8c bf c0 28 c7 3e
       -0.2364941 -1.1005181 0.38898277

decoder.gru.weight_hh f4 [3, 1]
000000 22 ad 3b be 0b 0f 65 3e 50 6a 4a bf
       -0.18327764 0.2236902 -0.7906847

decoder.gru.bias_ih f4 [3]
000000 a8 b0 9c bf e4 03 36 3f bc 11 83 be
       -1.2241411 0.71099687 -0.25599468

decoder.gru.bias_hh f4 [3]
000000 6a a4 4f be a1 17 1f 3f 08 24 20 bf
       -0.20277563 0.6214543 -0.6255498
